char_net0.pt (torch, 257887 bytes, 10 tensors)

conv1.weight f4 [6, 1, 5, 5]
-0.03918927 0.0365102 -0.17512386 -0.08555153 -0.0031362558 -0.17525172 -0.121836774 -0.1226047
0.15405516 -0.052852932 -0.025895242 0.07760498 0.031013587 -0.11658444 0.030164996 0.08881766
0.05672907 -0.038856704 0.025148988 0.21191292 -0.022083174 -0.025630202 -0.13116837 0.16638125
-0.03012331 -0.17981943 -0.13343202 -0.14091654 -0.13181797 0.024954086 0.14204292 -0.20802666
-0.14640655 0.0026896847 0.097933225 0.0043552234 -0.016172945 -0.13869627 -0.008816868 0.011110394
0.23566979 -0.09881222 0.13565618 0.109292984 0.17107227 0.066181526 -0.008224439 0.13134506
0.0670614 0.045118682 0.39865205 0.14727195 0.44722262 0.08979769 0.35892448 0.5080813
0.50314736 0.44086885 0.42266124 0.25534645 0.22920412 0.17825185 0.3122524 0.34649476
-0.028434617 0.4476333 0.33647415 0.3730612 0.150803 0.18375897 0.052807692 0.37236637
0.13986252 0.17342284 -0.094864376 0.20800558 -0.011336312 0.025888776 -0.021875324 0.15890925
0.085534975 0.23452415 0.34538037 0.039091714 -0.04193169 0.18574725 0.26247394 0.061118644
0.29683033 -0.08059332 0.31115243 0.3551889 0.30068213 0.17413737 0.22330117 -0.008018807
0.31929448 0.38475242 0.33885142 0.016076379 -0.09183225 0.074458204 0.0061344123 0.18904795
0.06770144 0.09661938 -0.032450516 0.21354337 0.16423854 -0.055390384 0.19623333 -0.06938567
-0.17247641 -0.16729747 0.094187975 -0.02751979 0.14297168 -0.09579471 -0.111339115 -0.042999163
-0.12003369 -0.09993662 0.19146939 0.14732145 -0.17165084 0.27278897 0.33899546 0.38763595
0.30337375 0.4617503 0.31828567 0.2860842 0.17075312 0.46306306 0.29996875 0.12682128
0.21067227 0.40443808 0.32484874 0.5306701 0.09164213 0.152368 0.39036465 0.3237121
0.42476353 0.24387847 0.14796473 0.4169108 0.43541458 0.28447783
00000000: ee84 20bd b88b 153d ab53 33be a435 afbd
00000010: a489 4dbb 3075 33be 8f85 f9bd 2c18 fbbd
00000020: a3c0 1d3e 517c 58bd 4222 d4bc 5cef 9e3d
00000030: 3510 fe3c d3c3 eebd 951c f73c 09e6 b53d
00000040: be5c 683d 3528 1fbd 4005 ce3c b3ff 583e
00000050: c6e7 b4bc 6ef6 d1bc 0051 06be d95f 2a3e
00000060: 29c5 f6bc 9622 38be 67a2 08be 6d4c 10be
00000070: 4afb 06be 836c cc3c b373 113e f104 55be
00000080: 99eb 15be 6c45 303b 3791 c83d 43b6 8e3b
00000090: 207d 84bc 6506 0ebe a074 10bc 5f08 363c
000000a0: 6c53 713e 105e cabd 74e9 0a3e 00d5 df3d
000000b0: 922d 2f3e 2e8a 873d ccbf 06bc 527f 063e
000000c0: 7d57 893d 5ece 383d 1f1c cc3e 75ce 163e
000000d0: 5dfa e43e dae7 b73d f3c4 b73e 9e11 023f
000000e0: 44ce 003f 90b9 e13e 0e67 d83e c5bc 823e
000000f0: 7cb4 6a3e a787 363e 8cdf 9f3e c367 b13e
00000100: b7ef e8bc 3130 e53e 5746 ac3e e101 bf3e
00000110: 1a6c 1a3e 502b 3c3e e14c 583d cea6 be3e
00000120: 1f38 0f3e c295 313e 4148 c2bd 6aff 543e
00000130: f0bb 39bc b314 d43c e133 b3bc 1bb9 223e
00000140: f62c af3d 1927 703e b2d5 b03e a21e 203d
00000150: 90c0 2bbd 8734 3e3e fc62 863e 8b57 7a3d
00000160: 25fa 973e 1c0e a5bd 5f4f 9f3e 52db b53e
00000170: 02f3 993e 1151 323e 10a9 643e 5061 03bc
00000180: 917a a33e 45fe c43e ef7d ad3e 9cb2 833c
00000190: 8c12 bcbd 8b7d 983d 2e03 c93b c995 413e
000001a0: 0da7 8a3d 62e0 c53d d5ea 04bd 1dab 5a3e
000001b0: 262e 283e 07e1 62bd 64f1 483e 131a 8ebd
000001c0: a89d 30be 0750 2bbe a0e5 c03d 2f71 e1bc
000001d0: 2b67 123e 0430 c4bd c305 e4bd e41f 30bd
000001e0: 39d4 f5bd 92ab ccbd 8d10 443e 6fdb 163e
000001f0: 3dc5 2fbe ffaa 8b3e d090 ad3e 3878 c63e
00000200: ce53 9b3e 896a ec3e 57f6 a23e a179 923e
00000210: e8d9 2e3e 9a16 ed3e 8195 993e 70dd 013e
00000220: 79ba 573e 8212 cf3e 9352 a63e ffd9 073f
00000230: deae bb3d 5b06 1c3e e0dd c73e 98bd a53e
00000240: 9b7a d93e 47bb 793e 1184 173e 5575 d53e
00000250: a9ee de3e 14a7 913e

conv1.bias f4 [6]
-0.14918274 0.21103686 0.21049647 0.1667732 -0.18830112 0.14805956
00000000: 5cc3 18be 0c1a 583e 638c 573e 98c6 2a3e
00000010: 02d2 40be ed9c 173e

conv2.weight f4 [16, 6, 5, 5]
0.0393071 -0.04443885 0.061884243 0.009978818 -0.07646165 0.05561096 0.006601644 -0.06314873
0.07825794 0.076881096 0.043336608 0.027478421 -0.066992715 0.07583455 -0.052290905 0.059765186
-0.0019555625 -0.065689884 -0.03727639 -0.066029705 -0.016803794 -0.058850802 -0.020269906 -0.025038036
-0.013021259 0.044228993 -0.07498556 0.010555718 -0.0031439979 0.03566859 0.050001267 0.06563651
-0.01747368 -0.06551919 0.004237746 0.084781796 0.07267414 -0.07857189 -0.069798745 0.049166597
0.08274179 -0.046798214 0.006951527 0.0010430147 0.05386511 -0.045914147 0.012557581 -0.024860522
0.049335506 -0.05734311 0.015766362 0.009856897 0.103984155 0.09021156 0.019224813 -0.11164109
-0.048304915 0.039686587 0.0893526 0.066216186 -0.031161597 -0.05400033 0.07327888 0.09052232
-0.021130323 -0.10856389 0.07629375 0.08460756 -0.038992945 0.03376053 0.015827864 -0.058479127
0.0795606 -0.04390471 -0.06628915 -0.046065643 0.0105414875 0.006804551 -0.05436475 -0.08775923
-0.017661413 0.008788399 0.105391115 -0.039187327 -0.0023599486 -0.015140732 -0.030315313 0.10936112
0.055208705 -0.024938667 -0.028354483 0.08606383 0.06840822 0.0095857745 0.046736877 -0.06563184
0.030428942 0.040001404 0.04089515 0.0072277645 -0.07764979 -0.054329403 -0.026005149 0.07721174
-0.002798944 -0.07670702 -0.06397153 0.036225557 0.014350387 -0.046932496 0.051939193 0.027650228
-0.02976402 -0.001988655 -0.06249784 0.043503918 -0.025396602 0.066648684 -0.004236496 0.057938043
-0.02575832 0.06455752 0.04441228 0.045953546 -0.08485445 -0.025467068 0.01918102 -0.017252417
0.084406555 0.027402608 -0.04355071 0.110745326 0.063856654 -0.05213484 -0.11083018 -0.05517207
0.08720124 0.054502714 -0.0016386571 -0.067790344 -0.021986017 -0.02200805 -0.021613184 0.021229811
-0.03432876 0.038285747 -0.007823382 0.067274 0.09681975 0.013099533 0.0064743776 -0.0751909
-0.023002071 -0.03382037 0.044154275 -0.00873293 -0.05855984 0.017261995 -0.027679028 -0.080974944
-0.05223956 -0.02320562 -0.0076506105 -0.017636834 0.0627062 0.041806966 -0.0016135079 0.07364567
0.05993742 0.06374977 0.05025239 -0.009183133 -0.019275011 0.058655523 -0.055241413 -0.033579852
-0.029758176 -0.08162554 -0.0008964509 0.022855602 -0.071749434 -0.0124847805 0.05119888 -0.05956177
0.02376293 0.04051117 -0.07576835 0.014407599 -0.08117738 -0.056805257 0.018475534 0.0332357
0.071619175 0.031252198 -0.0066168397 0.020588007 -0.021828804 0.00456595 -0.03252625 0.040599924
-0.0794951 0.0060899165 -0.019017478 0.014737683 0.013675229 -0.08128634 -0.07470364 -0.057838477
0.007896754 0.07612766 -0.025322422 -0.0808179 0.018465774 -0.0426065 0.049222834 0.06308341
-0.0839768 -0.04672004 -0.049158555 0.022996295 0.009547589 -0.06441075 0.010242915 0.0339157
0.0073704203 -0.06692585 0.005619931 -0.010094638 0.0034403426 -0.026128344 0.034465283 0.07184129
0.067321196 -0.05623181 -0.057560764 -0.054018017 -0.021902546 -0.061537143 -0.053407658 -0.06368328
-0.04793456 0.031476874 -0.018015672 -0.07963478 -0.030400803 -0.06953728 -0.079343505 0.04552461
0.009907705 -0.055610854 0.055178624 -0.06032264 0.06156708 0.024581106 -0.043465246 -0.00040334402
00000000: 7b00 213d 8305 36bd 557a 7d3d 327e 233c
00000010: ed97 9cbd 51c8 633d 9b52 d83b 1f54 81bd
00000020: b345 a03d d673 9d3d ba81 313d 6d1a e13c
00000030: 7a33 89bd 254f 9b3d fd2e 56bd 57cc 743d
00000040: e528 00bb 6b88 86bd 21af 18bd 953a 87bd
00000050: 1ca8 89bc 8a0d 71bd 130d a6bc 911c cdbc
00000060: 1e57 55bc 7629 353d 0792 99bd e4f1 2c3c
00000070: 880b 4ebb 3a19 123d 21ce 4c3d 6f6c 863d
00000080: f724 8fbc ed2e 86bd cadc 8a3b 14a2 ad3d
00000090: 2ed6 943d 4dea a0bd a5f2 8ebd ea62 493d
000000a0: 8774 a93d 7caf 3fbd a3c9 e33b c4b5 883a
000000b0: a9a1 5c3d 7910 3cbd 50be 4d3c 4ba8 cbbc
000000c0: 0714 4a3d 9ce0 6abd 7528 813c d37e 213c
000000d0: a5f5 d43d d7c0 b83d 5b7d 9d3c 15a4 e4bd
000000e0: 60db 45bd 678e 223d 7ffe b63d 5a9c 873d
000000f0: 9b46 ffbc 732f 5dbd 3d13 963d c463 b93d
00000100: 8019 adbc bf56 debd e63f 9c3d ba46 ad3d
00000110: 11b7 1fbd 7b48 0a3d 70a9 813c cf87 6fbd
00000120: abf0 a23d 6dd5 33bd 9bc2 87bd 54af 3cbd
00000130: 34b6 2c3c b6f8 de3b 92ad 5ebd 1cbb b3bd
00000140: abae 90bc 38fd 0f3c 4cd7 d73d e482 20bd
00000150: 5ea9 1abb d510 78bc d257 f8bc b9f8 df3d
00000160: 8622 623d 2d4c ccbc a947 e8bc 3c42 b03d
00000170: 9c19 8c3d a70d 1d3c 2b6f 3f3d fc69 86bd
00000180: 1e46 f93c 83d8 233d ac81 273d e2d6 ec3b
00000190: da06 9fbd 8288 5ebd c008 d5bc 3021 9e3d
000001a0: 7d6e 37bb 9218 9dbd 8103 83bd 4061 143d
000001b0: e31d 6b3c 4a3c 40bd 31be 543d bb82 e23c
000001c0: add3 f3bc 1854 02bb bcfd 7fbd 2a31 323d
000001d0: 890c d0bc 1b7f 883d 4ed2 8abb 7150 6d3d
000001e0: 1d03 d3bc bc36 843d a7e9 353d c939 3c3d
000001f0: 2bc8 adbd 50a0 d0bc 8421 9d3c f154 8dbc
00000200: 58dd ac3d 6f7b e03c 3b62 32bd 72ce e23d
00000210: 47c7 823d 588b 55bd effa e2bd 1cfc 61bd
00000220: 9096 b23d 3d3e 5f3d 35c8 d6ba aad5 8abd
00000230: 051c b4bc 3a4a b4bc 220e b1bc 24ea ad3c
00000240: 509c 0cbd 84d1 1c3d a42d 00bc f3c6 893d
00000250: 6f49 c63d 6c9f 563c 0427 d43b b0fd 99bd
00000260: d76e bcbc 3a87 0abd 1ddb 343d 9014 0fbc
00000270: 71dc 6fbd 0769 8d3c 21bf e2bc 31d6 a5bd
00000280: 26f9 55bd b619 bebc f9b1 fabb 1f7b 90bc
00000290: 1c6c 803d c83d 2b3d 577c d3ba 8bd3 963d
000002a0: f180 753d 3d8f 823d 73d5 4d3d da74 16bc
000002b0: a1e6 9dbc c640 703d d244 62bd 078b 09bd
000002c0: 6bc7 f3bc 4b2b a7bd cdff 6aba ac3b bb3c
000002d0: 5ef1 92bd f78c 4cbc ebb5 513d 0bf7 73bd
000002e0: 7aaa c23c 0aef 253d 702c 9bbd da0d 6c3c
000002f0: 5440 a6bd a1ac 68bd 015a 973c 2822 083d
00000300: 13ad 923d 4e02 003d 13d2 d8bb 2ea8 a83c
00000310: 52d2 b2bc f79d 953b 3f3a 05bd 1b4c 263d
00000320: 54ce a2bd ec8d c73b 8bca 9bbc 5376 713c
00000330: 110e 603c 7479 a6bd 39fe 98bd 0ae8 6cbd
00000340: 6361 013c d2e8 9b3d f870 cfbc db83 a5bd
00000350: 8945 973c 2784 2ebd e29d 493d e031 813d
00000360: 07fc abbd 835d 3fbd 7b5a 49bd ba62 bc3c
00000370: 7e6d 1c3c c9e9 83bd e6d1 273c 30eb 0a3d
00000380: 9183 f13b 6c10 89bd 6627 b83b fb63 25bc
00000390: 5f77 613b 1c0b d6bc 782b 0d3d 8721 933d
000003a0: b2df 893d 5453 66bd d6c4 6bbd ff41 5dbd
000003b0: f86c b3bc 5f0e 7cbd fdc1 5abd 616c 82bd
000003c0: 0757 44bd e5ed 003d 9a95 93bc 8f17 a3bd
000003d0: 1b0b f9bc 9069 8ebd d97e a2bd 0378 3a3d
000003e0: ed53 223c 35c8 63bd fb02 623d df14 77bd
000003f0: c32d 7c3d 515e c93c 9d08 32bd eb77 d3b9

conv2.bias f4 [16]
0.06477658 -0.016330017 0.0016705112 0.031706687 -0.037707843 -0.020631202 -0.05585784 -0.030109921
0.039496742 -0.03212512 -0.026278326 -0.045604397 -0.047991913 -0.07903537 0.024667023 0.050326116
00000000: 95a9 843d 87c6 85bc 0ef5 da3a dfde 013d
00000010: 8a73 1abd c402 a9bc 31cb 64bd 15a9 f6bc
00000020: 56c7 213d a195 03bd a545 d7bc adcb 3abd
00000030: 2b93 44bd 4cdd a1bd 7f12 ca3c c222 4e3d

fc1.weight f4 [120, 400]
-0.013042007 0.01977959 -0.032060653 0.04176411 -0.013739386 0.016000604 -0.02441525 0.00097153726
-0.022394044 -0.0065253167 0.004089208 0.007364314 0.02819545 0.019723421 0.023824433 -0.0019526129
-0.043098863 -0.044881463 0.023101635 0.035979096 0.047781605 -0.05036705 -0.036441665 -0.011625831
-0.020994794 -0.019122832 0.016124604 -0.047075335 0.043188106 -0.0021529426 0.033206094 0.021833522
-0.03552219 0.031454496 -0.031842448 0.009517138 0.042936366 -0.023863006 -0.007479532 -0.03700985
-0.034096923 0.03293568 -0.03530101 0.0092355255 0.02832604 0.00486985 -0.017622495 0.02566725
-0.0239823 0.03449617 0.007055341 -0.050428245 0.03938584 -0.024289463 0.037361864 0.030707197
0.01744232 0.00990072 -0.015329181 0.037686918 -0.001179514 0.012329892 -0.027534373 -0.04848938
-0.010590541 0.015968207 -0.031069132 -0.006104223 -0.035311475 -0.019921537 0.006985775 0.025704714
-0.037199073 0.04273213 0.028621407 0.008387753 -0.043541174 0.02914099 0.011858311 -0.01887748
0.008420178 -0.023087172 -0.041953363 -0.025017096 0.012497789 7.45834e-05 0.017754596 0.0026620016
0.012845077 0.045514353 -0.006157695 -0.022013923 -0.013190024 -0.04332001 0.0409898 -0.025332741
-0.027285257 0.0035490969 0.034778576 -0.029771877 0.03221608 -0.044955906 -0.048796862 0.041430745
-0.0004530977 0.005751418 0.0040318095 -0.031216303 0.009136538 0.04941019 0.010108503 -0.032074627
-0.019103888 -0.032880083 -0.0029368747 0.017161885 0.008631019 0.0066480455 -0.0009112179 -0.04794783
-0.021344054 0.030103702 -0.010111773 -0.035424113 -0.030603448 -0.032300938 -0.036648996 -0.041052535
0.03334825 0.0036378738 -0.04798809 0.03057323 -0.017792383 -0.03256627 0.016603058 0.006601891
0.0044123586 0.044884562 0.019999681 -0.047477532 0.041122206 -0.015435202 -0.031602703 0.03152267
0.048641276 -0.009283806 0.00932636 0.03035592 0.02130256 -0.03799787 -0.04038042 -0.048739564
0.034551192 -0.034660563 -0.048181854 0.027356807 0.047845297 -0.036625266 -0.0097599765 -0.025552431
-0.037683435 0.015375429 0.031105794 -0.043972425 -0.02293788 0.020987695 0.0236547 0.022237698
-0.043789923 0.023871493 -0.008659845 -0.024978815 0.0059303935 0.00065229257 0.046622723 0.0243992
-0.02568627 -0.04402867 0.004072369 0.013049917 -0.012168888 -0.050301738 -0.049338985 0.043331172
-0.01413412 -0.050181434 -0.050360482 -0.02012972 -0.026367223 -0.035725866 -0.02568778 0.045426015
-0.0020887866 0.043654133 -0.0022250065 0.00922258 0.002414294 0.0043946267 -0.016553609 -0.0027867581
-0.0027254785 0.008246148 0.0031282837 -0.01501853 0.019380802 0.018143116 0.03487762 0.0021280784
0.01889721 -0.04807675 0.02474213 0.030154562 0.005693522 0.02280489 -0.008108646 -0.037773795
0.025272613 -0.004059553 -0.03259587 -0.021766592 -0.037021812 0.015816564 0.033900168 -0.037415072
-0.0051927837 0.04374019 -0.03565088 -0.008382209 0.005397697 -0.045925688 -0.041966252 0.023577217
-0.023114357 0.021834102 0.033185583 -0.04975711 0.0016023766 -0.016304076 -0.0207313 0.0030784255
-0.001053966 -0.0092426045 0.03622468 0.03176425 -0.0035257828 -0.034668252 -0.02201252 0.019723406
-0.017928572 -0.04263249 -0.037786417 0.02302355 0.036059793 0.01016784 -0.044616796 0.0010106498
00000000: 24ae 55bc cf08 a23c 0852 03bd d810 2b3d
00000010: 291b 61bc b313 833c 7e02 c8bc c3ae 7e3a
00000020: b773 b7bc 53d2 d5bb c3fe 853b 5850 f13b
00000030: 25fa e63c 0393 a13c 752b c33c d1ee ffba
00000040: 6f88 30bd a0d5 37bd a43f bd3c d15e 133d
00000050: a5b6 433d ae4d 4ebd db43 15bd 457a 3ebc
00000060: 46fd abbc 7ca7 9cbc bf17 843c 11d2 40bd
00000070: 03e6 303d 6218 0dbb 1d03 083d 37dc b23c
00000080: b77f 11bd 6ed6 003d 3a6d 02bd c5ed 1b3c
00000090: 0bde 2f3d 5a7c c3bc dd16 f5bb a497 17bd
000000a0: 37a9 0bbd 90e7 063d cb97 10bd 9a50 173c
000000b0: 030c e83c 4393 9f3b 0d5d 90bc 2044 d23c
000000c0: 8776 c4bc db4b 0d3d 7d30 e73b d98d 4ebd
000000d0: 0c53 213d b2fa c6bc c108 193d a98d fb3c
000000e0: 32e3 8e3c a136 223c 3f27 7bbc 995d 1a3d
000000f0: ec99 9aba 5103 4a3c c48f e1bc cd9c 46bd
00000100: f383 2dbc c2cf 823c b184 febc ef05 c8bb
00000110: c4a2 10bd 7e32 a3bc eee8 e43b b192 d23c
00000120: 0e5e 18bd e307 2f3d 7177 ea3c c96c 093c
00000130: 3b58 32bd 16b9 ee3c 5c49 423c f2a4 9abc
00000140: c9f4 093c 4f21 bdbc 4ad7 2bbd a7f0 ccbc
00000150: 87c3 4c3c a869 9c38 1672 913c fa74 2e3b
00000160: 2874 523c 426d 3a3d 7dc6 c9bb 8b56 b4bc
00000170: f81a 58bc 5370 31bd ece4 273d 9c86 cfbc
00000180: 5585 dfbc f797 683b fb73 0e3d 27e4 f3bc
00000190: 02f5 033d af23 38bd 38df 47bd 49b3 293d
000001a0: be8d edb9 6476 bc3b 451d 843b 55b9 ffbc
000001b0: 6bb1 153c 5762 4a3d 229e 253c af60 03bd
000001c0: c27f 9cbc 44ad 06bd 9578 40bb 1597 8c3c
000001d0: 1e69 0d3c d9d7 d93b ccde 6eba f264 44bd
000001e0: bad9 aebc 0a9c f63c daab 25bc e018 11bd
000001f0: 15b4 fabc fd4d 04bd 421d 16bd b426 28bd
00000200: 2d98 083d 6569 6e3b 298f 44bd b674 fa3c
00000210: 55c1 91bc 3664 05bd 2303 883c ad54 d83b
00000220: 8c95 903b e0d8 373d 5fd6 a33c cd77 42bd
00000230: c26f 283d eee3 7cbc d671 01bd ea1d 013d
00000240: 133c 473d 1b1b 18bc 97cd 183c faac f83c
00000250: b582 ae3c a8a3 1bbd f065 25bd 23a3 47bd
00000260: 8d85 0d3d 3cf8 0dbd 565a 45bd 621b e03c
00000270: 6ef9 433d 6004 16bd 4fe8 1fbc 5553 d1bc
00000280: f259 1abd 39e9 7b3c 94d1 fe3c 6e1c 34bd
00000290: 39e8 bbbc 63ee ab3c 80c7 c13c d52b b63c
000002a0: 105d 33bd 268e c33c 06e2 0dbc 5fa0 ccbc
000002b0: bf53 c23b 9dfe 2a3a 78f7 3e3d d5e0 c73c
000002c0: 036c d2bc 6857 34bd 8271 853b 52cf 553c
000002d0: 0460 47bc 3209 4ebd ad17 4abd 077c 313d
000002e0: cc92 67bc 0c8b 4dbd cb46 4ebd 15e7 a4bc
000002f0: 1300 d8bc 4955 12bd 2e6f d2bc a110 3a3d
00000300: 06e4 08bb adce 323d 6ad1 11bb 4e1a 173c
00000310: 2239 1e3b cd00 903b 6f9b 87bc 0ba2 36bb
00000320: f19d 32bb da1a 073c e403 4d3b 4810 76bc
00000330: 7dc4 9e3c dfa0 943c d6db 0e3d 3b77 0b3b
00000340: 52ce 9a3c 20ec 44bd 02b0 ca3c b306 f73c
00000350: b990 ba3b 52d1 ba3c 20da 04bc b2b8 1abd
00000360: 8308 cf3c 0006 85bb 3f83 05bd da4f b2bc
00000370: 2fa4 17bd bd91 813c e7da 0a3d 8c40 19bd
00000380: 3a28 aabb ea28 333d a806 12bd 8855 09bc
00000390: 2adf b03b 931c 3cbd cee4 2bbd 0225 c13c
000003a0: 525a bdbc 6edd b23c 9bed 073d 1dce 4bbd
000003b0: d606 d23a 2090 85bc b0d4 a9bc 69bf 493b
000003c0: 3b25 8aba 4b6e 17bc 5460 143d 3b1b 023d
000003d0: d210 67bb 4c00 0ebd 9a53 b4bc fb92 a13c
000003e0: f1de 92bc 689f 2ebd eec5 1abd e29b bc3c
000003f0: 6fb3 133d 0397 263c 1ac0 36bd c877 843a

fc1.bias f4 [120]
0.039145354 0.020820342 -0.010615275 -0.017360771 -0.008407406 -0.023098284 0.012730263 -0.035257645
-0.042599156 0.03972187 0.0026629681 0.02326625 0.0053848266 -0.003516998 -0.0068748565 -0.01623712
-0.027534038 0.006259698 0.022485597 -0.047803417 0.016781058 -0.012804719 -0.034375586 0.046001922
0.048697326 -0.034257114 -0.019825652 -0.029168088 -0.030624114 0.007565274 -0.0099983 0.004772902
0.016978614 0.012154045 0.040153835 -0.0088614505 0.04475954 0.011706603 -0.03725371 0.037247173
-0.02605628 0.04358843 -0.02147792 -0.039493334 0.035575964 0.040947303 0.03952859 0.023492564
-0.014343719 -0.039594773 0.013264281 0.035549756 0.039428156 0.021345114 0.011584557 -0.022841774
0.02447843 -0.012033954 0.0082526095 -0.04351205 0.015638823 0.021814406 -0.037721742 -0.011659774
-0.044564445 0.021635786 -0.024631323 0.030777546 0.047128767 -0.028371347 -0.045184895 0.030845271
-0.045295797 0.047818378 0.027852163 -0.012726724 0.014501355 0.041748226 0.028839648 0.039182696
-0.027277328 0.039547842 -0.013538805 0.04461887 0.039019432 -0.03186804 -0.00497272 -0.03065881
-0.0032161432 -0.011805348 0.032328546 -0.040985692 0.02144472 -0.03800408 -0.00019904294 -0.005777425
0.05027674 0.009209693 -0.004423214 -0.026929127 -0.03827821 -0.042460028 -0.02110858 -0.036618587
0.029502293 -0.024752146 0.016482823 -0.018428883 0.038133364 0.0047585033 0.013929385 -0.046025056
-0.03539751 -0.027985578 -0.006166347 0.043997854 0.013433203 -0.003448093 0.03936927 -0.027192483
00000000: e156 203d 6c8f aa3c b1eb 2dbc 2d38 8ebc
00000010: 37bf 09bc 9d38 bdbc 9892 503c 526a 10bd
00000020: 747c 2ebd 66b3 223d 3185 2e3b dd98 be3c
00000030: 3373 b03b 6f7d 66bb 7a46 e1bb b503 85bc
00000040: 108f e1bc 271e cd3b b733 b83c 84cd 43bd
00000050: 6e78 893c e2ca 51bc 6acd 0cbd 836c 3c3d
00000060: d976 473d 3051 0cbd 6869 a2bc eaf1 eebc
00000070: 6cdf fabc 1ee6 f73b e9cf 23bc 0166 9c3b
00000080: bc16 8b3c c221 473c 5978 243d 9e2f 11bc
00000090: c855 373d 0dcd 3f3c 5997 18bd 7e90 183d
000000a0: fb73 d5bc c889 323d 76f2 afbc c3c3 21bd
000000b0: 1ab8 113d 5cb8 273d bbe8 213d 7a73 c03c
000000c0: eb01 6bbc 212e 22bd 6d52 593c 9f9c 113d
000000d0: 6b7f 213d f3db ae3c 27cd 3d3c ac1e bbbc
000000e0: fd86 c83c 102a 45bc f435 073c b139 32bd
000000f0: fd1c 803c 20b4 b23c 1d82 1abd a308 3fbc
00000100: 3589 36bd 883d b13c a1c7 c9bc 3121 fc3c
00000110: 180a 413d 076b e8bc cc13 39bd 39af fc3c
00000120: 1688 39bd 34dd 433d 382a e43c c083 50bc
00000130: 1797 6d3c 3000 2b3d 2041 ec3c 097e 203d
00000140: b474 dfbc ebfc 213d ddd1 5dbc 47c2 363d
00000150: d7d2 1f3d 1088 02bd 33f2 a2bb 2f28 fbbc
00000160: eec5 52bb 386b 41bc f06a 043d 9de0 27bd
00000170: d6ac af3c 2baa 1bbd 2fb6 50b9 8e50 bdbb
00000180: fcee 4d3d 41e4 163c 9cf0 90bb 799a dcbc
00000190: 9dc9 1cbd 91ea 2dbd e7eb acbc 5ffd 15bd
000001a0: cbae f13c 03c5 cabc fc06 873c 2bf8 96bc
000001b0: bb31 1c3d 38ed 9b3b 1338 643c c584 3cbd
000001c0: fbfc 10bd 0342 e5bc 110f cabb 1837 343d
000001d0: f016 5c3c 67f9 61bb ac41 213d c5c2 debc

fc2.weight f4 [84, 120]
-0.08725499 -0.07680377 -0.0079267975 0.018555509 -0.049376536 0.004744147 -0.0797379 -0.09135608
-0.04230525 0.07331129 0.07723546 -0.041702315 0.043684725 0.06501073 -0.038589723 0.039532628
-0.028066864 0.026461978 -0.03978488 -0.03212712 -0.045543555 -0.034044728 0.041166537 -0.015471305
-0.08142079 0.03755509 0.0228881 0.033419915 0.005133377 0.07054341 -0.091454 0.07264319
0.08550121 -0.086526364 0.0358573 -0.03736077 -0.04480832 -0.08594357 -0.090754755 0.03815515
-0.0020265707 0.00039044276 -0.022507874 0.002858598 0.008026588 0.034281112 -0.06348682 -0.07560739
0.036177244 -0.087503426 0.084351465 0.071098134 0.058624662 -0.042795908 -0.04269222 -0.07744532
0.042098608 -0.029338693 -0.004177766 0.045610756 -0.06488091 0.06878032 0.06977724 -0.04704255
-0.08645492 0.021063747 -0.080995 -0.07700852 -0.06459161 0.047392156 0.021981947 0.052493464
-0.041013427 -0.059489638 0.06580232 0.0018500452 0.07765129 -0.08791024 -0.014624681 0.003979235
0.02243827 0.075951286 0.06502658 0.0148473 0.06649188 -0.045166496 -0.046992794 -0.0018010477
0.06356309 -0.07275108 0.04606374 0.039522137 -0.051096745 -0.06115165 0.03629048 -0.08418392
0.06306229 -0.038526382 -0.06739194 -0.07038456 0.063711084 0.002365493 -0.06553147 -0.02373454
0.013304493 -0.06469213 -0.051535524 -0.006229669 0.04578012 -0.07734733 -0.015655054 -0.06536362
0.08095828 -0.0577118 -0.022937689 -0.063157395 -0.043171182 -0.032779627 -0.07459319 0.089115635
0.03496439 0.074453965 -0.06247238 -0.034961347 -0.06720623 0.04212131 -0.087674856 -0.034647267
-0.053224575 -0.01863216 -0.08481947 0.013874883 -0.02768457 -0.052958496 0.07018832 0.022045568
-0.050834153 -0.0027591744 -0.030513685 0.058948874 -0.020472556 0.09005918 -0.064232744 0.1050144
-0.045652367 0.0222373 0.083387755 0.048561085 -0.013381539 0.104026094 -0.070809886 0.030326828
0.01963895 0.031883728 0.079852365 -0.082440816 0.08759142 -0.09010426 -0.09151523 -0.0065332297
0.0035369594 0.0070154727 -0.0390434 0.06015789 -0.0015436064 0.088668354 -0.015240351 0.039500263
0.11102621 0.08269548 -0.08661825 -0.0697607 0.06663596 -0.07650471 -0.07021947 -0.027863016
0.08593746 0.031509437 -0.03615985 0.05618213 0.047137115 -0.057067186 0.03769027 0.08810861
-0.06830545 0.009293259 -0.014978448 0.014333777 -0.05682535 -0.0041085472 -1.7560596e-05 -0.04748582
0.067457795 0.018270155 -0.08011344 0.04972298 -0.08828426 0.014389406 0.0019610394 0.09631785
-0.007092216 0.06496322 -0.08302581 -0.070419066 0.021715298 0.08368962 -0.08774877 0.0025437598
0.02947112 0.0058743125 -0.029104304 0.04121959 -0.050006036 0.024909526 -0.0037855618 0.0427392
0.0097015165 0.05127459 0.11036206 0.039853834 -0.08637707 0.06894115 0.014985864 -0.03458732
-0.0035826277 -0.016556583 -0.021954818 -0.095779836 -0.06140562 0.030828267 -0.058967125 -0.040532902
-0.051819645 -0.005295519 0.019833228 -0.044722732 0.0005250384 0.086548164 0.063258916 0.046126112
0.024092048 0.055872187 0.03775768 0.029396536 0.019040894 -0.012123408 0.016794847 0.008109723
0.06732553 -0.009309475 -0.07752114 -0.014911277 -0.038416523 0.08932842 0.0030170635 0.035314847
00000000: bfb2 b2bd 4c4b 9dbd 66df 01bc b901 983c
00000010: 0d3f 4abd ca74 9b3b a04d a3bd e518 bbbd
00000020: 4548 2dbd 3b24 963d a02d 9e3d 0cd0 2abd
00000030: c1ee 323d 5824 853d 4210 1ebd f7ec 213d
00000040: 7bec e5bc cac6 d83c 78f5 22bd ba97 03bd
00000050: e18b 3abd 7c72 0bbd 3e9e 283d 5b7b 7dbc
00000060: f1bf a6bd 5ed3 193d d37f bb3c 52e3 083d
00000070: e335 a83b 1079 903d 3c4c bbbd f4c5 943d
00000080: 421b af3d bc34 b1bd 1bdf 123d 9b07 19bd
00000090: ee88 37bd 2f03 b0bd a1dd b9bd 9348 1c3d
000000a0: 37d0 04bb 57b4 cc39 6f62 b8bc 5157 3b3b
000000b0: f381 033c 5a6a 0c3d 6105 82bd 0cd8 9abd
000000c0: 972e 143d ff34 b3bd 76c0 ac3d e69b 913d
000000d0: 6a20 703d c34a 2fbd 0ade 2ebd a79b 9ebd
000000e0: 976f 2c3d b357 f0bc a4e5 88bb 58d2 3a3d
000000f0: 48e0 84bd b2dc 8c3d 5fe7 8e3d b0af 40bd
00000100: 470f b1bd e18d ac3c b5e0 a5bd a5b6 9dbd
00000110: 9b48 84bd 471e 423d 7c13 b43c 6303 573d
00000120: b2fd 27bd 68ab 73bd 5ec3 863d 377d f23a
00000130: a407 9f3d 490a b4bd 5c9c 6fbc 3e64 823b
00000140: 76d0 b73c 598c 9b3d a82c 853d 1742 733c
00000150: e52c 883d 8100 39bd 847b 40bd 2211 ecba
00000160: 5e2d 823d 85fe 94bd 55ad 3c3d f7e1 213d
00000170: d24a 51bd 277a 7abd 54a5 143d 9e68 acbd
00000180: cd26 813d d7cd 1dbd c904 8abd c825 90bd
00000190: f57a 823d 6306 1b3b 5d35 86bd f06e c2bc
000001a0: 17fb 593c 4f7d 84bd ea16 53bd 4022 ccbb
000001b0: ef83 3b3d 4768 9ebd 073f 80bc 5ddd 85bd
000001c0: 74cd a53d 3563 6cbd d2e7 bbbc aa58 81bd
000001d0: 44d4 30bd ee43 06bd 50c4 98bd 4282 b63d
000001e0: d236 0f3d 527b 983d 0ae3 7fbd a133 0fbd
000001f0: 6ba3 89bd 6587 2c3d e08e b3bd 4bea 0dbd
00000200: 0302 5abd 79a2 98bc d5b5 adbd 7a53 633c
00000210: c0ca e2bc 02eb 58bd e5be 8f3d e898 b43c
00000220: 7937 50bd 44d3 34bb d6f7 f9bc 6074 713d
00000230: 10b6 a7bc f370 b83d 758c 83bd ca11 d73d
00000240: fafd 3abd 002b b63c 33c7 aa3d fde7 463d
00000250: 3e3e 5bbc a20b d53d c604 91bd f86f f83c
00000260: dde1 a03c 8398 023d a389 a33d bbd6 a8bd
00000270: 2163 b33d 9588 b8bd 566c bbbd b414 d6bb
00000280: 55cc 673b 0de2 e53b f9eb 1fbd 1f68 763d
00000290: d652 caba c197 b53d aab2 79bc 07cb 213d
000002a0: b661 e33d 3f5c a93d e964 b1bd b3de 8ebd
000002b0: 6f78 883d 80ae 9cbd 3acf 8fbd fb40 e4bc
000002c0: fbff af3d 0a10 013d 5a1c 14bd 3c1f 663d
000002d0: d912 413d 48bf 69bd 1d61 1a3d 4972 b43d
000002e0: bae3 8bbd c142 183c 2a68 75bc 38d8 6a3c
000002f0: b3c1 68bd fea0 86bb 184f 93b7 7e80 42bd
00000300: 5027 8a3d 4bab 953c 8412 a4bd 53aa 4b3d
00000310: 61ce b4bd 8bc1 6b3c c884 003b 4b42 c53d
00000320: d265 e8bb 700b 853d 7009 aabd df37 90bd
00000330: 48e4 b13c 7765 ab3d a1b5 b3bd 35b5 263b
00000340: 6b6d f13c 4e7d c03b 266c eebc dfd5 283d
00000350: 21d3 4cbd 100f cc3c 3017 78bb 4d0f 2f3d
00000360: 1cf3 1e3c 4e05 523d 8105 e23d c63d 233d
00000370: 76e6 b0bd 0531 8d3d 4587 753c 6fab 0dbd
00000380: 85ca 6abb aca1 87bc 97da b3bc 3828 c4bd
00000390: 7684 7bbd 908b fc3c 8387 71bd d405 26bd
000003a0: d640 54bd 0886 adbb 4b79 a23c 2f2f 37bd
000003b0: bba2 093a 2a40 b13d e48d 813d bcee 3c3d
000003c0: b05c c53c 3cda 643d cca7 1a3d 01d1 f03c
000003d0: a6fb 9b3c 42a1 46bc 5995 893c a5de 043c
000003e0: f8e1 893d c586 18bc 67c3 9ebd 6e4e 74bc
000003f0: a55a 1dbd d2f1 b63d edb9 453b 4da6 103d

fc2.bias f4 [84]
-0.037067432 0.0051767225 0.07635033 -0.075967416 -0.0030345584 -0.07999076 0.051200107 0.05498029
-0.07536619 0.04949874 0.07504623 -0.08443724 0.061293077 0.0065691 0.011790297 0.033521704
0.031420104 0.04136145 -0.054568663 0.03509885 0.061061274 -0.03585255 -0.09387919 0.06157325
0.08840581 0.062797956 0.0838637 0.023521023 0.058069084 0.08077306 -0.06705069 0.02096561
-0.017123066 -0.006190502 0.031299215 -0.04562131 0.03539468 0.087888874 -0.03114422 -0.037205018
0.009026576 0.0056849606 0.039074756 -0.013262026 -0.027951963 0.0016158714 -0.03335161 -0.06836857
-0.07230915 -0.009446828 0.011560602 0.028157815 -0.024689365 0.0239274 -0.036228772 -0.08278037
-0.05875696 0.016395373 0.063103095 0.06575659 -0.03633239 0.068007864 -0.081072725 -0.07003027
-0.017838005 -0.06425245 0.08659147 0.010331811 0.07052181 0.07069358 -0.03775239 -0.06451562
0.06379874 0.016683128 -0.061095115 -0.05785147 -0.0147923725 0.025196893 -0.07862352 -0.03425374
0.096027695 0.0011856984 -0.08082942 0.06434974
00000000: 05d4 17bd 7fa1 a93b 905d 9c3d ce94 9bbd
00000010: 71df 46bb 32d2 a3bd 34b7 513d 0333 613d
00000020: 9759 9abd 31bf 4a3d d6b1 993d 6fed acbd
00000030: 730e 7b3d 9b41 d73b 172c 413c 0e4e 093d
00000040: 5eb2 003d a06a 293d 6483 5fbd d0c3 0f3d
00000050: 631b 7a3d 20da 12bd bc43 c0bd 3b34 7c3d
00000060: 1b0e b53d 379c 803d bbc0 ab3d 29af c03c
00000070: d9d9 6d3d 596c a53d df51 89bd 12c0 ab3c
00000080: ac45 8cbc b2d9 cabb 9b33 003d 69dd 3abd
00000090: 03fa 103d 15ff b33d 2a22 ffbc 4a64 18bd
000000a0: 34e4 133c e848 ba3b da0c 203d f848 59bc
000000b0: 84fb e4bc a6cb d33a b39b 08bd d204 8cbd
000000c0: d216 94bd dec6 1abc ae68 3d3c 38ab e63c
000000d0: 5a41 cabc 6503 c43c 9f64 14bd c188 a9bd
000000e0: 23ab 70bd 974f 863c 323c 813d 64ab 863d
000000f0: 46d1 14bd b547 8b3d 7509 a6bd 086c 8fbd
00000100: 0221 92bc ca96 83bd de56 b13d c246 293c
00000110: bd6d 903d ccc7 903d 40a2 1abd c420 84bd
00000120: eaa8 823d 0eab 883c df3e 7abd aaf5 6cbd
00000130: b55b 72bc b769 ce3c 5e05 a1bd a64d 0cbd
00000140: 2baa c43d 7069 9b3a e589 a5bd ccc9 833d

fc3.weight f4 [33, 84]
-0.010840963 -0.022775533 0.045371518 -0.047227956 -0.046377804 -0.040707685 -0.018237485 0.07653923
-0.03187572 -0.08426623 -0.07165968 -0.18441515 -0.10628491 0.08887364 0.09819587 0.14769563
-0.069145516 -0.020038508 0.061921544 0.04042199 0.022847971 0.024453282 -0.10129451 -0.05369336
-0.06490548 -0.0048019043 0.11241236 -0.046764415 -0.09650079 -0.11629804 0.10385201 -0.09233081
-0.10262645 -0.049420863 -0.06423287 0.062273823 0.1821487 0.0145876575 0.0121228 -0.026352612
0.15928409 0.056932777 0.067788415 -0.0011413064 0.09950073 0.12129731 -0.061521742 -0.096885994
-0.120399594 0.025613774 0.07863077 -0.07938458 -0.0053233197 -0.014953768 -0.13608986 -0.04157753
-0.0062656715 0.08519598 0.050784115 -0.0041794637 -0.09058404 -0.10952068 -0.015040052 0.035764933
0.032565 0.080567226 -0.080917925 0.009944492 -0.034644917 0.02134031 0.0034553409 -0.0032769672
0.049847513 0.22381172 -0.011042661 0.028070522 0.045951065 -0.099216975 0.047599014 0.041390162
-0.08766966 0.032907307 0.04385202 0.055815097 -0.089349695 0.011317193 0.025792403 -0.11217373
0.039059013 0.037392966 0.04145024 0.037641115 -0.27289835 -0.06399013 -0.0004451105 -0.013586442
0.02951252 -0.09018771 -0.16238387 0.05992586 -0.06429779 -0.08664068 0.035963003 -0.052382313
0.030981451 0.063755475 -0.035688818 -0.02413989 -0.020559125 -0.116599575 0.07672457 0.13198356
-0.032734457 0.07854413 -0.06811603 0.02756666 -0.019014329 -0.030106101 -0.047303777 -0.124278024
-0.015688641 0.08191606 -0.048472285 0.03183499 0.05181237 -0.06702019 -0.07882094 0.0017211894
0.108105525 0.19113915 0.06670419 0.030755054 -0.08443289 0.14573675 -0.10025121 0.0039433194
-0.1267785 0.01609638 0.024950968 0.00095057144 -0.009148287 0.1269793 -0.034083918 0.043261733
0.09552393 0.029132567 0.044684425 -0.028893882 -0.036193073 -0.11349734 0.050166454 -0.06267978
-0.027446523 -0.11755379 0.07203162 0.13013974 0.08039279 0.12502627 -0.08639085 0.03917509
0.054479565 -0.095984146 0.019779954 -0.065433584 -0.002131577 -0.11165379 -0.077929296 0.027594442
-0.092973486 0.07784006 0.035332713 -0.00896394 -0.0067308615 0.022332931 0.060864594 0.020830262
-0.0606593 0.043438755 0.05475734 0.012966327 0.0718087 -0.106835335 0.030567879 -0.078285396
-0.06836927 -0.113958515 -0.006546856 0.023544507 0.04998285 0.016139215 0.0963253 -0.12650456
0.08738845 0.08268396 0.017062185 -0.0034163655 -0.025367772 0.107430905 -0.076730184 -0.14536007
0.06150277 0.106393464 -0.09377715 -0.13592114 0.045015752 0.012962207 -0.07300258 0.12985583
0.018157432 -0.11147956 0.0024154768 0.14154963 -0.074123114 0.06160483 0.0529328 -0.085505754
0.032848313 0.041793276 0.020836111 0.111319415 0.03166401 -0.020549161 0.06526381 -0.11592861
-0.05344124 -0.15628263 0.056910187 0.046102304 0.097756326 -0.112648934 -0.012514477 0.08990113
0.07386246 0.032907236 0.08449577 -0.05166738 0.09919039 -0.1513399 0.063732184 0.06624004
0.07637487 -0.006048213 -0.08477359 0.014462925 0.037277367 -0.07527981 0.07934662 0.051704373
-0.20921785 0.035721324 -0.09457452 -0.049720623 0.0014349252 -0.044526327 0.044913277 0.05065613
00000000: 4b9e 31bc c193 babc 7cd7 393d 1a72 41bd
00000010: a7f6 3dbd 1abd 26bd c766 95bc 9ac0 9c3d
00000020: 1d90 02bd c693 acbd 4fc2 92bd 53d7 3cbe
00000030: e7ab d9bd 6203 b63d eb1a c93d 863d 173e
00000040: 2a9c 8dbd cc27 a4bc 72a1 7d3d 8791 253d
00000050: ab2b bb3c 4052 c83c 7f73 cfbd 92ed 5bbd
00000060: 2aed 84bd 4b59 9dbb 7438 e63d 0b8c 3fbd
00000070: 35a2 c5bd ab2d eebd 5db0 d43d f017 bdbd
00000080: d12d d2bd 886d 4abd 868c 83bd d612 7f3d
00000090: 3085 3a3e 1201 6f3c b59e 463c 6fe1 d7bc
000000a0: 5e1b 233e 5832 693d a7d4 8a3d e397 95ba
000000b0: 0ac7 cb3d b96a f83d 39fe 7bbd 2a6c c6bd
000000c0: 1094 f6bd fad3 d13c 2b09 a13d 6294 a2bd
000000d0: 3e6f aebb a600 75bc 245b 0bbe 334d 2abd
000000e0: 4350 cdbb 3b7b ae3d 0103 503d e2f3 88bb
000000f0: 2084 b9bd 614c e0bd 8d6a 76bc 407e 123d
00000100: e162 053d 6e00 a53d 4cb8 a5bd 39ee 223c
00000110: d4e7 0dbd e0d1 ae3c 0073 623b 63c2 56bb
00000120: e82c 4c3d e62e 653e 47ec 34bc 27f4 e53c
00000130: 2f37 3c3d 4532 cbbd 2ff7 423d bb88 293d
00000140: 278c b3bd d0c9 063d 2d9e 333d 5f9e 643d
00000150: f9fc b6bd bf6b 393c 974a d33c 57bb e5bd
00000160: 58fc 1f3d 5e29 193d bac7 293d 922d 1a3d
00000170: 55b9 8bbe 420d 83bd b85d e9b9 ab99 5ebc
00000180: 3ec4 f13c 56b4 b8bd f547 26be d274 753d
00000190: 8fae 83bd ab70 b1bd f14d 133d d68e 56bd
000001a0: d0cc fd3c 3b92 823d 702e 12bd 05c1 c5bc
000001b0: 9c6b a8bc c2cb eebd c521 9d3d b326 073e
000001c0: 9114 06bd bfdb a03d 6b80 8bbd 7ad3 e13c
000001d0: f0c3 9bbc 12a1 f6bc 9bc1 41bd 7a85 febd
000001e0: 7785 80bc 9bc3 a73d e08a 46bd 6865 023d
000001f0: 3539 543d e241 89bd df6c a1bd 8899 e13a
00000200: 6e66 dd3d fbb9 433e 359c 883d 06f2 fb3c
00000210: 27eb acbd 043c 153e 8250 cdbd f636 813b
00000220: 39d2 01be 8edc 833c f965 cc3c c52f 793a
00000230: b2e2 15bc dd06 023e 949b 0bbd 3733 313d
00000240: 0da2 c33d 6ca7 ee3c 0407 373d ddb2 ecbc
00000250: 303f 14bd 4b71 e8bd 577b 4d3d 425e 80bd
00000260: 88d7 e0bc 0bc0 f0bd 5085 933d 5a43 053e
00000270: faa4 a43d e306 003e b0ed b0bd 0f76 203d
00000280: f725 5f3d 5693 c4bd 9209 a23c 0b02 86bd
00000290: eeb1 0bbb beaa e4bd 6599 9fbd bd0d e23c
000002a0: e268 bebd 9c6a 9f3d 09b9 103d 7ddd 12bc
000002b0: 8f8e dcbb 8df3 b63c 274d 793d 3aa4 aa3c
000002c0: e375 78bd d6ec 313d 3c49 603d b870 543c
000002d0: 7110 933d 7ccc dabd 7d69 fa3c 1854 a0bd
000002e0: 3005 8cbd 1563 e9bd 0287 d6bb 69e0 c03c
000002f0: d1ba 4c3d 6336 843c 3346 c53d 698a 01be
00000300: b7f8 b23d 3556 a93d ffc5 8b3c 1ae5 5fbb
00000310: 13d0 cfbc bc04 dc3d b724 9dbd 45d9 14be
00000320: 54ea 7b3d d1e4 d93d 3c0e c0bd e92e 0bbe
00000330: 7062 383d 705f 543c 6082 95bd edf8 043e
00000340: e5be 943c 654f e4bd fa4c 1e3b 63f2 103e
00000350: dccd 97bd 5955 7c3d 10d0 583d a41d afbd
00000360: f48b 063d 6d2f 2b3d 7eb0 aa3c 6ffb e33d
00000370: 1fb2 013d b756 a8bc 08a9 853d fb6b edbd
00000380: 34e5 5abd 8e08 20be a81a 693d c5d5 3c3d
00000390: 7834 c83d 7cb4 e6bd 8509 4dbc 151e b83d
000003a0: 3445 973d bdc9 063d 1e0c ad3d 2da1 53bd
000003b0: 5524 cb3d d9f8 1abe 0586 823d dca8 873d
000003c0: 6e6a 9c3d 1730 c6bb c79d adbd e7f5 6c3c
000003d0: 27b0 183d 4d2c 9abd 7b80 a23d f7c7 533d
000003e0: 343d 56be 8650 123d 49b0 c1bd daa7 4bbd
000003f0: 1a14 bc3a 3d61 36bd fcf6 373d cd7c 4f3d

fc3.bias f4 [33]
0.036428038 -0.032951273 -0.028610848 -0.09177261 -0.07223936 0.015452726 0.0081246635 -0.04934697
0.07273809 0.046156295 -0.07679495 -0.05406498 -0.042119656 0.110292345 0.05064607 -0.06429881
0.01787756 -0.094708264 -0.029435603 0.022311103 -0.027155776 0.036951855 0.044627707 -0.02349674
0.09329364 0.0063132867 -0.002856255 0.057957366 0.037469942 -0.07170066 0.0016217538 -0.014725037
0.060621023
00000000: 9135 153d eaf7 06bd 4c61 eabc 47f3 bbbd
00000010: 3bf2 93bd 6e2d 7d3c 4f1d 053c 0c20 4abd
00000020: b5f7 943d 620e 3d3d ac46 9dbd 3e73 5dbd
00000030: a985 2cbd f4e0 e13d 4172 4f3d 18af 83bd
00000040: f673 923c 68f6 c1bd ef22 f1bc c6c5 b63c
00000050: ca75 debc d45a 173d 8bcb 363d 3c7c c0bc
00000060: bc10 bf3d b0df ce3b 0230 3bbb b464 6d3d
00000070: 157a 193d ccd7 92bd 0791 d43a 4841 71bc
00000080: c04d 783d
