char_net0.pt (torch, 257887 bytes, 10 tensors)

conv1.weight f4 [6, 1, 5, 5]
0	0x3e320bab	0.17387263
1	0xbc61f7c8	-0.013791986
2	0x3e5b8cf9	0.21440496
3	0x3e25e995	0.16202386
4	0x3ea3d801	0.32000735
5	0xbe127000	-0.14300537
6	0x3d7dda7d	0.061975945
7	0x3e6bf559	0.23042811
8	0x3de318d8	0.11088723
9	0x3eb7aae6	0.35872573
10	0x3d114b12	0.035471983
11	0x3e0ff37b	0.14057724
12	0xbd085331	-0.033282463
13	0x3ea28a48	0.31746125
14	0x3e412752	0.18862656
15	0xbd8b39d0	-0.06798136
16	0xbdc3796d	-0.095446445
17	0x3dd2fe68	0.103024304
18	0x3e8dee61	0.2772093
19	0x3e83aef5	0.2571942
20	0xbe16ed27	-0.14738904
21	0x3db7ceff	0.08975028
22	0x3e6258e6	0.22104225
23	0x3e10b1a8	0.1413027
24	0x3e68eefa	0.22747412
25	0x3e17071e	0.14748809
26	0x3e525370	0.20539641
27	0x3e35ede5	0.17766531
28	0x3eb9cc3d	0.36288634
29	0x3ea338bc	0.31879222
30	0xbd1501d5	-0.0363787
31	0x3e9e4bd6	0.30917233
32	0x3c85a794	0.016315259
33	0x3d6448a4	0.055733338
34	0x3cbb76aa	0.022883732
35	0x3e44308d	0.19159146
36	0x3e7beb7a	0.24601546
37	0x3e05a2ce	0.13050386
38	0x3ea93e30	0.33055258
39	0x3c679a4d	0.014135909
40	0x3d8a5dd2	0.06756176
41	0x3e91f641	0.2850819
42	0xbcc51e10	-0.024062186
43	0x3e8afae1	0.2714453
44	0x3e9e5164	0.3092147
45	0xbde36a3c	-0.11104247
46	0x3dd4cf06	0.10391049
47	0x3de03325	0.10947255
48	0x3e7dba51	0.24778105
49	0x3d34f557	0.044179287
50	0x3cda23b5	0.026628355
51	0xbdb49c1e	-0.088188395
52	0xbd96188e	-0.07328902
53	0x3c07c9d7	0.008287868
54	0xbbed1c34	-0.007236028
55	0xbd9b4afd	-0.07582662
56	0xbde76929	-0.112993546
57	0xbe235e15	-0.15953858
58	0xbda7b09f	-0.08187985
59	0xbe23fc85	-0.16014297
60	0xbda1fe53	-0.079098366
61	0x3d6cb0b4	0.057785705
62	0xbe2440fe	-0.16040418
63	0x3e10681b	0.14102213
64	0xbca10bff	-0.01965904
65	0x3e563298	0.20917737
66	0x3df731ef	0.12070071
67	0x3c283959	0.010267579
68	0xbdc6dabc	-0.09709689
69	0x3d93b2a0	0.072118044
70	0xbdd8af34	-0.10580292
71	0x3e0b298f	0.13590072
72	0xbda92526	-0.082590386
73	0x3deab691	0.11460603
74	0xbe402d8d	-0.18767376
75	0xbddc8f59	-0.10769529
76	0xbde83af0	-0.113393664
77	0x3dfcf39b	0.123511516
78	0x3d02b3f3	0.031909894
79	0xbdd4625f	-0.10370325
80	0x3e106e08	0.14104474
81	0x3e21e729	0.15810837
82	0xbe26ad4c	-0.16277045
83	0xbe3dc804	-0.18533331
84	0x3e4ad3a9	0.19807304
85	0xbd4bec1e	-0.049785726
86	0x3d9ec702	0.077528015
87	0xbe11b0df	-0.14227627
88	0xbdb7ff17	-0.089842014
89	0xbcd1c9d3	-0.025608933
90	0x3d7ea571	0.062169496
91	0xbd873f30	-0.06603849
92	0xbe2b33d7	-0.16718994
93	0x3e22de71	0.15905167
94	0x3c1f0f7d	0.009708283
95	0xbe2fb7f8	-0.17160022
96	0x3e44762b	0.19185703
97	0x3df47bf7	0.11937707
98	0xbd3d4390	-0.04620701
99	0xbe124a29	-0.14286102
100	0x3cce241a	0.025163699
101	0xbd312578	-0.043248624
102	0x3e89ae11	0.26890615
103	0xbc37e618	-0.011224292
104	0x3d8d44a2	0.06897856
105	0x3e9d6db6	0.30747765
106	0x3ea89e27	0.3293316
107	0x3d780e22	0.060560353
108	0x3d5553c7	0.05208185
109	0x3d82c47c	0.06385133
110	0x3d0f1d7b	0.034940224
111	0x3e676d54	0.22600299
112	0x3ea781e0	0.32716274
113	0x3ea21fed	0.31664982
114	0xbc86a84c	-0.016437672
115	0x3ebe2032	0.37133938
116	0x3e792d6e	0.24333736
117	0x3e516cf1	0.20451714
118	0xbda5f86d	-0.08104024
119	0xbdb240e6	-0.08703785
120	0x3eb18f85	0.3467981
121	0x3e958ffe	0.2921142
122	0x3e363dfc	0.17797083
123	0xbd186c61	-0.037212733
124	0xbd5c6ade	-0.053812854
125	0x3eb879cd	0.36030427
126	0x3f099e7c	0.5375745
127	0x3e908cb8	0.2823236
128	0x3efb2b51	0.49056485
129	0x3e4c3d1a	0.19945183
130	0x3e9f7841	0.31146434
131	0x3e6336d6	0.22188887
132	0x3efcacc4	0.4935056
133	0x3f06dbf7	0.5267939
134	0x3f023584	0.5086291
135	0x3f0908eb	0.5352923
136	0x3f136a99	0.5758453
137	0x3e821386	0.2540552
138	0x3ea3cc87	0.3199198
139	0x3e94bb3f	0.29049107
140	0x3f0033a9	0.5007883
141	0x3f06ee52	0.527074
142	0x3f102a55	0.56314594
143	0x3e640816	0.2226871
144	0x3e984794	0.2974211
145	0x3ead28b7	0.33820125
146	0x3ed03217	0.40663216
147	0x3e305f21	0.17223789
148	0x3e25b539	0.16182412
149	0x3eb8bf0d	0.3608326

conv1.bias f4 [6]
0	0x3e40f042	0.18841651
1	0xbd6563fa	-0.05600355
2	0xbcd792c9	-0.02631511
3	0xbe08c781	-0.13357355
4	0xbe1cd0ee	-0.15314075
5	0xbd3920db	-0.04519735

conv2.weight f4 [16, 6, 5, 5]
0	0x3c641579	0.013921135
1	0x3d659738	0.056052417
2	0xbb9e4487	-0.0048299464
3	0x3d61e10e	0.05514627
4	0xbcc81b31	-0.024427028
5	0xbd353e2e	-0.044248752
6	0x3d8b0d83	0.067896865
7	0x3d9847bf	0.074355595
8	0x3ca0a4e5	0.019609878
9	0xbc284500	-0.010270357
10	0xbd59c50b	-0.05316643
11	0x3d15d058	0.036575645
12	0x3b4dc123	0.0031395636
13	0x3cbb8063	0.022888368
14	0xbdda5782	-0.10661222
15	0x3d80188b	0.06254681
16	0x3d8cab73	0.06868639
17	0xbcc3d8c3	-0.023907071
18	0xbd2c856a	-0.04211942
19	0xbda094f6	-0.07840912
20	0x3cf99f22	0.030471388
21	0x3dfec7b0	0.12440431
22	0x3dbcf2d9	0.09226007
23	0x3d532f00	0.051558495
24	0xbd93f1e6	-0.07223873
25	0x3db9cdb8	0.09072441
26	0x3ded8129	0.11596901
27	0x3d63e4d3	0.055638146
28	0xbd5f4fb8	-0.054519385
29	0x3d7bb2ff	0.06145
30	0x3d475ed8	0.048674434
31	0x3ded8f60	0.11599612
32	0xbcea356b	-0.028589925
33	0xbcab1d70	-0.02088806
34	0xbd784eb5	-0.060621936
35	0xbbd72af6	-0.0065664006
36	0xbd2efa55	-0.042719204
37	0xbb507108	-0.0031805653
38	0x3c2858f7	0.010275117
39	0xbc059931	-0.008154199
40	0xbcfe142a	-0.031015474
41	0xbc95ee5b	-0.018302133
42	0xbcba439f	-0.022737322
43	0x3c97e07c	0.01853966
44	0xbd1b64a1	-0.037937764
45	0xbbb953eb	-0.0056557558
46	0xbd50f709	-0.05101684
47	0x3dc0a556	0.09406535
48	0x3da74114	0.081667095
49	0x3cdeafb5	0.027183393
50	0x3c638acd	0.013888073
51	0x3d9dccf9	0.07705111
52	0xbd56e88d	-0.05246787
53	0x3d39977f	0.045310494
54	0xbd8456f1	-0.06461895
55	0xbce4024c	-0.027833126
56	0x3d1f092a	0.0388271
57	0xbd5d8142	-0.054078348
58	0x3cf0ef52	0.029410992
59	0x3d16b1cb	0.03679065
60	0x3d923276	0.07138531
61	0xbcc09f2e	-0.023513403
62	0xbc47eb0c	-0.012202036
63	0xbc94360f	-0.018092183
64	0x3da10f22	0.078642145
65	0xbd759d24	-0.059964314
66	0x3c9c0129	0.019043522
67	0xbd5e6c27	-0.05430236
68	0xbd407999	-0.046990965
69	0x3ce72249	0.02821459
70	0x3d9c5c2b	0.07634767
71	0x3b98902f	0.00465586
72	0xbc871930	-0.016491503
73	0x3d9c32e7	0.07626896
74	0x3d27df16	0.040984236
75	0x3d77c3de	0.060489528
76	0x3d27cb42	0.040965326
77	0x3d93bcca	0.07213743
78	0x3d790e49	0.06080464
79	0xbab277c0	-0.001361601
80	0xbd847703	-0.06468012
81	0x3d3b08b5	0.0456626
82	0xbd9706e5	-0.07374362
83	0xbcaf7268	-0.021416858
84	0xbcaf6ed2	-0.021415148
85	0x3b602777	0.003420321
86	0x3d19a7bd	0.037513483
87	0x3d85029d	0.06494639
88	0x3c164354	0.009171326
89	0xbd4c434d	-0.04986887
90	0x3d8abce4	0.06774309
91	0xbd065b80	-0.032802105
92	0x3d8d9d09	0.06914718
93	0xbd884f93	-0.066558026
94	0xbd789394	-0.060687616
95	0xbd95f9c3	-0.07323029
96	0xbcd44cfe	-0.025915619
97	0xbc84452f	-0.01614627
98	0xbd813d5a	-0.0631053
99	0x3d8c5b85	0.068533935
100	0xbd8dafb9	-0.06918282
101	0x3dadeefd	0.08492849
102	0x3da38d53	0.0798594
103	0x3d599777	0.053122964
104	0x3dd9eea4	0.1064122
105	0x3d3ae154	0.045625046
106	0xbd56c931	-0.052437965
107	0x3d02d06a	0.03193704
108	0x3dbad53b	0.09122702
109	0x3d04e443	0.03244425
110	0xbdc25315	-0.09488503
111	0xbd4a44da	-0.04938207
112	0x3d052bff	0.03251266
113	0xbc97b586	-0.018519174
114	0x3d2c0b8b	0.042003196
115	0xbcf5cb67	-0.030004216
116	0xbde56f09	-0.11202819
117	0xbd4f92d7	-0.050677147
118	0x3dfc5897	0.12321585
119	0x3daf4fd3	0.08560147
120	0xbde98098	-0.114014804
121	0xbd978019	-0.073974796
122	0xbd40c0cf	-0.047058877
123	0x3d7cd5c0	0.061727285
124	0xbcefdd4d	-0.02928033
125	0x3df2f6bc	0.11863467
126	0x3e02d956	0.1277822
127	0x3e24a827	0.1607977
128	0x3d0f1233	0.034929466
129	0x3c94f3aa	0.018182594
130	0x3db2168d	0.086957075
131	0x3c9d6deb	0.019217452
132	0x3d50e208	0.05099681
133	0x3deafb26	0.11473684
134	0x3d15f098	0.0366064
135	0xbde31699	-0.110882945
136	0x3d7b6134	0.061371997
137	0x3db4be0d	0.08825312
138	0x3d6f260b	0.05838589
139	0x3cf62f96	0.030051988
140	0xbd8b77ee	-0.06809984
141	0xbd6b2dfb	-0.057416897
142	0x3e25ba93	0.16184454
143	0x3e193757	0.14962517
144	0x3cca9ffa	0.024734486
145	0xbd2639a1	-0.040582303
146	0xbcf00831	-0.029300781
147	0x3cd3f48a	0.025873441
148	0x3e188be9	0.14897121
149	0x3b603806	0.003421308
150	0x3d3c4a4c	0.045969293
151	0x3cb1bba3	0.021695917
152	0xbccc9ebf	-0.02497804
153	0x3c8c5126	0.017128538
154	0x3c70659f	0.014672666
155	0x3c105586	0.008809453
156	0xbc9a6efa	-0.018851746
157	0xbd92252d	-0.07135997
158	0xbdd8257c	-0.105540246
159	0xbd8488b8	-0.064713895
160	0x3cd5a190	0.026078016
161	0x3d2e722d	0.042589355
162	0x3c8ab68f	0.016932754
163	0x3bf60a73	0.00750857
164	0xbd2f2c90	-0.042767107
165	0xbb3b00b9	-0.0028534366
166	0xbce63aa9	-0.028104143
167	0x3d605df0	0.054777086
168	0x3d2910a0	0.04127562
169	0xbd141829	-0.036155853
170	0x3ccbd3e4	0.02488131
171	0x3dac2eb3	0.08407345
172	0x3da5bb91	0.08092416
173	0xbbb68361	-0.005569861
174	0x3c4e7498	0.01260104
175	0x3d81b7cd	0.06333885
176	0x3c287e73	0.010284054
177	0x3cba8705	0.02276946
178	0xbd22329d	-0.03959905
179	0xbccd6bcf	-0.025075821
180	0x3c594275	0.0132604735
181	0x3d851e1d	0.06499884
182	0xbd8306f7	-0.06397813
183	0xbcdf291d	-0.027241284
184	0x3c67756f	0.014127119
185	0x3d11e1f5	0.03561588
186	0x3d4a42ac	0.04937999
187	0x3d2dc303	0.042422306
188	0x3d291483	0.041279327
189	0xbc352211	-0.011055485
190	0x3c993cb5	0.018705705
191	0x3db8f9c1	0.09032012
192	0xbcee6f7c	-0.029105894
193	0xbd56fdee	-0.05248826
194	0xbdbdaa3f	-0.092609875
195	0x3d4de4c8	0.05026701
196	0x3dd85c18	0.105644405
197	0x3dccf065	0.10006789
198	0xbcdfd0d9	-0.027321266
199	0x3b587542	0.0033028875
200	0xbceb960e	-0.028758075
201	0xb9f795d1	-0.00047223133
202	0x3da0316f	0.07821929
203	0x3da80491	0.08203996
204	0xbd28b35e	-0.041186683
205	0xbd59a8bb	-0.05313943
206	0x3d691f3f	0.056914564
207	0xbd61cece	-0.055128865
208	0x3d0b242b	0.03397004
209	0xbd6348b5	-0.05548926
210	0xbb91772c	-0.004439255
211	0xbd9cafb7	-0.076507024
212	0x3ca788f6	0.02045105
213	0x3d01433f	0.03155827
214	0x3d132654	0.035925224
215	0xbc4a213d	-0.012337026
216	0x3c444099	0.011978292
217	0x3d978e55	0.074001946
218	0x3d93030d	0.07178316
219	0x3d14ba56	0.036310516
220	0x3d3ee89f	0.046608564
221	0xbc110f65	-0.008853768
222	0xbd946b3e	-0.07247017
223	0x3d1cd6d2	0.038290806
224	0x3d6915b4	0.056905463
225	0x3d34f535	0.04417916
226	0x3d598916	0.05310925
227	0xbc5126c0	-0.012765586
228	0x3c4d89dd	0.012545076
229	0xbc70baf2	-0.014693009
230	0xbda05f23	-0.07830646
231	0x3d97bee8	0.07409459
232	0xbd40262e	-0.04691141
233	0xbd636a72	-0.055521436
234	0x3c1771b5	0.009243418
235	0x3d9706bb	0.073743306
236	0x3ceebc59	0.029142546
237	0xbd5ccb49	-0.053904805
238	0x3d3b50be	0.0457313
239	0xbd1412ef	-0.03615087
240	0xbd2d73a4	-0.04234661
241	0x3d245341	0.04011846
242	0xbb810256	-0.003937046
243	0x3cdcbfb8	0.026946887
244	0xbd92b5ac	-0.071635574
245	0xbc8abccd	-0.01693573
246	0x3d7f6fc5	0.06236245
247	0xbd462fbf	-0.048385378
248	0xbcaa41e5	-0.020783374
249	0xbda1e789	-0.0790549
250	0x3b75aef3	0.003748831
251	0xbc0f7ecf	-0.008758261
252	0xbd39319b	-0.045213323
253	0xbc06d6a1	-0.008229882
254	0xbdbb6b92	-0.09151377
255	0x3d984d1b	0.07436582

conv2.bias f4 [16]
0	0x3b7b08b1	0.003830474
1	0x3c94dd92	0.01817206
2	0x3c6fcbd2	0.014635997
3	0xbd60edb8	-0.054914206
4	0xbd9c4d67	-0.07631951
5	0x3be9077b	0.0071114874
6	0xbd3a58ff	-0.04549503
7	0xbd7f676f	-0.0623545
8	0xbda03cb4	-0.07824078
9	0xbc8fca9b	-0.017552665
10	0xbcf38b7c	-0.029729597
11	0x3d12f88b	0.03588156
12	0x3d4ee2b9	0.05050919
13	0xbc5af785	-0.013364677
14	0xbd84a9b4	-0.06477681
15	0xbd7cf732	-0.06175918

fc1.weight f4 [120, 400]
0	0xbd236cca	-0.03989867
1	0xbc447539	-0.011990839
2	0xbd19ffb8	-0.037597388
3	0xbd3f73de	-0.04674136
4	0x3cc7b323	0.024377411
5	0xbc17c7cf	-0.009263947
6	0xbc88462e	-0.016635027
7	0xbc0b5577	-0.008504263
8	0x3d2bc56c	0.041936323
9	0xbccc8619	-0.024966286
10	0x3ce928dc	0.028461866
11	0xbc166a24	-0.009180579
12	0x3cf28950	0.029606491
13	0x3c5f88e8	0.013643481
14	0x3babb77a	0.005240378
15	0x3d3d5815	0.04622658
16	0xbcda4fac	-0.026649319
17	0xbc9e0cf9	-0.019293295
18	0x3cb1eea4	0.021720238
19	0x3c0d0be7	0.008608795
20	0xbcaef5bb	-0.021357408
21	0x3d0b854b	0.034062665
22	0xbbcf557d	-0.0063273297
23	0x3d1f5b18	0.038905233
24	0x3d200838	0.039070338
25	0xbc480209	-0.0122075165
26	0x3d470cf7	0.04859635
27	0x3d13d28a	0.036089458
28	0x3cc339b7	0.023831232
29	0x3be21ded	0.00690054
30	0x3bb19df1	0.0054204394
31	0xbcafd622	-0.021464411
32	0x3c2471fe	0.0100369435
33	0xbd1c35ab	-0.03813712
34	0xbbe89631	-0.0070979823
35	0xbb1fd262	-0.0024386873
36	0x3d15d298	0.03657779
37	0xbcca94b4	-0.02472911
38	0xbd490343	-0.049075376
39	0xbc344d6d	-0.011004788
40	0xbb87be9e	-0.0041425964
41	0xbcb72d09	-0.022360342
42	0xbc7b0da4	-0.015323076
43	0xbc82982b	-0.0159417
44	0xbd30428a	-0.043032207
45	0xbbb5cf3f	-0.0055483873
46	0xbcb92ec3	-0.022605306
47	0xbcc11a4c	-0.02357211
48	0xbc6ca87e	-0.014444469
49	0x3d0b7b7c	0.03405331
50	0x39cafa67	0.00038715007
51	0x3b04a94f	0.0020242517
52	0xbc578e7a	-0.013156528
53	0xbd191c0e	-0.03738027
54	0x3d34ed88	0.04417184
55	0xbd2ce007	-0.042205837
56	0x3b4b8133	0.003105235
57	0xbc943360	-0.018090904
58	0xbd03c335	-0.032168586
59	0xbbd285cf	-0.0064246426
60	0x3d41b473	0.04729123
61	0x3d29f205	0.041490573
62	0x3d367473	0.04454465
63	0xbc831b9f	-0.016004382
64	0x3a406aba	0.0007340122
65	0xbc846603	-0.016161924
66	0x3bdc0dcd	0.0067155124
67	0xbbf94a5c	-0.0076077413
68	0x3cab8b15	0.020940343
69	0xbd38c98d	-0.04511409
70	0x3bf231bf	0.007391184
71	0xbd018488	-0.031620532
72	0x3c3b0496	0.011414668
73	0x3cbeb5ee	0.02328011
74	0xbc54f045	-0.012996738
75	0x3ca4eaa4	0.020131417
76	0x3cc24695	0.023715297
77	0x3c998277	0.018738968
78	0x3d3b3f27	0.045714524
79	0x3cae2957	0.021259947
80	0xbd3cd8c6	-0.04610517
81	0x3a6c65f4	0.0009017878
82	0xbd3e4940	-0.046456575
83	0xbd4ae687	-0.049536254
84	0xbc4ee9e7	-0.012629009
85	0x3cbf3c7a	0.023344267
86	0x3cd80f0a	0.026374359
87	0xbd428e48	-0.04749897
88	0xbc45fada	-0.012083733
89	0xbbd227f7	-0.0064134556
90	0xbc884193	-0.01663283
91	0x3d2b7835	0.041862685
92	0xbd24fe47	-0.04028156
93	0xbcb5b560	-0.022181213
94	0x3d357571	0.044301454
95	0xbcf64d0a	-0.030066032
96	0x3d1607ca	0.036628522
97	0xbd07668f	-0.033056792
98	0xbc66a94d	-0.01407845
99	0x3cab6ebd	0.020926828
100	0x3c15e51b	0.009148861
101	0x3d4bf652	0.049795456
102	0xbd462ffd	-0.04838561
103	0x3d005f4c	0.031340882
104	0x3bc6f5de	0.00607179
105	0xbaec5c29	-0.0018032837
106	0xbd1843e2	-0.037174113
107	0xbbe9a288	-0.007129971
108	0xbc827bea	-0.015928227
109	0xbc35ec8e	-0.011103762
110	0x3ceb9670	0.028758258
111	0xbd0b9ef0	-0.03408712
112	0xbcae2795	-0.021259109
113	0xbcb1f737	-0.021724327
114	0x3c3ee302	0.011650803
115	0xbcca0615	-0.024661103
116	0x3bec4a9d	0.007211043
117	0xbc14244a	-0.009041855
118	0xbcdd62a5	-0.027024576
119	0xbd0de397	-0.034640875
120	0x3c55ba8b	0.013044964
121	0xbc32d8ba	-0.010915929
122	0xbc90a769	-0.017657952
123	0x3a4dec3b	0.00078553305
124	0x3b8570d6	0.004072289
125	0x3d24a9d7	0.040201034
126	0xbcb95710	-0.022624522
127	0xbc86bf00	-0.016448498
128	0x3c1336ed	0.008985263
129	0xbc56b32d	-0.013104242
130	0x39f32fde	0.00046384236
131	0xbd11aac7	-0.035563257
132	0xbd05b0a4	-0.03263916
133	0xbbb217af	-0.005434952
134	0x3cd18dc5	0.025580296
135	0xbc9a5a00	-0.018841743
136	0x3c60233e	0.013680277
137	0xbd35f335	-0.044421393
138	0xbc39adcc	-0.01133294
139	0x3b86e6bc	0.004116861
140	0xb83ecef5	-4.5492274e-05
141	0xbc92d53b	-0.017923942
142	0x3cb7e678	0.022448763
143	0xbcac389c	-0.021023087
144	0x3c224831	0.009904907
145	0xbd3ed8e6	-0.04659357
146	0x3bbaf855	0.005705873
147	0xbb1478fb	-0.0022655118
148	0x39196dd4	0.00014632131
149	0xbcf302ef	-0.029664485
150	0xbc94c448	-0.01816
151	0xbc4c57bb	-0.012472088
152	0xbc76e112	-0.015068309
153	0xbc502ced	-0.012706024
154	0x3c85a646	0.016314637
155	0x3abba733	0.0014316797
156	0xbbabd845	-0.005244287
157	0xbd43f9b0	-0.047845542
158	0x3c48582f	0.012228056
159	0x3c3e4313	0.011612671
160	0x3cbc08e0	0.02295345
161	0x3cf4f9c3	0.029904252
162	0x3b712780	0.0036797225
163	0x3bf869f3	0.0075809895
164	0xbc41d316	-0.011830112
165	0x3cd86ae3	0.026418155
166	0x3ce02ac1	0.027364137
167	0xbcd76f94	-0.026298322
168	0x3c719174	0.014744151
169	0xbca76055	-0.020431677
170	0xbd20dd6b	-0.03927366
171	0x3d4ca9fb	0.049966794
172	0xbbcd5240	-0.0062659085
173	0x3c81c7ea	0.015842397
174	0x3cd5c437	0.02609454
175	0x3bab2175	0.0052224942
176	0xbd3b8f13	-0.045790743
177	0xbd376615	-0.044775087
178	0x3bd9537b	0.006632266
179	0x3d071b2c	0.032984897
180	0x3d2ebf9a	0.042663194
181	0x3cc7872c	0.024356447
182	0xbc49083b	-0.012270029
183	0x3cc688a1	0.024235072
184	0xbce3331b	-0.02773433
185	0xbd423cf8	-0.047421426
186	0x3b7f5bf2	0.0038964716
187	0x3d01e309	0.03171066
188	0x3c8e6fdf	0.017387329
189	0x3ca12b7f	0.01967406
190	0xbd2d0eaf	-0.04225033
191	0xb99b2eab	-0.00029598674
192	0xbd1e4cf0	-0.038647592
193	0xbc96bdc4	-0.018401034
194	0x3ba09433	0.004900479
195	0xbb925ac8	-0.0044663884
196	0x3d03a471	0.032139245
197	0x3cc51075	0.024055699
198	0x3c7d0ed5	0.015445431
199	0x3ccd3d78	0.025053725
200	0x3c96fed9	0.018432068
201	0xbd189a0c	-0.037256286
202	0x3c8bcaea	0.01706453
203	0xbd44ce8c	-0.04804854
204	0xbd11a137	-0.035554137
205	0x3d046595	0.03232344
206	0xbd3f9557	-0.04677328
207	0x3d38e8d3	0.045143913
208	0x3cd625d5	0.026141087
209	0x3a6bcecd	0.00089953543
210	0x3d328513	0.04358394
211	0x3cad8e00	0.021185875
212	0xbccf6a0a	-0.025319118
213	0x3cc30cea	0.023809869
214	0x3d33498e	0.04377132
215	0x3cc98772	0.024600718
216	0xbc046846	-0.008081501
217	0xbcabe6f1	-0.020984145
218	0x3bd966a5	0.0066345506
219	0xbc2365fc	-0.009973045
220	0x3c0bbd43	0.00852901
221	0x3bba5720	0.0056866556
222	0x3c3899f4	0.011267174
223	0x3c9cfc2b	0.019163212
224	0xbabc3853	-0.0014360048
225	0x3d0a3bff	0.033748623
226	0x3ce669a7	0.02812655
227	0x3d169a38	0.03676817
228	0xbbf0291e	-0.0073291203
229	0xbd3ccfae	-0.046096496
230	0xbc2537d1	-0.010084108
231	0xbbe5fd15	-0.007018695
232	0x3b6284ae	0.0034563947
233	0xbc6ddbbd	-0.014517722
234	0x3b09a88c	0.0021005003
235	0x3d3f5ad0	0.046717465
236	0xbd23ccc1	-0.03999019
237	0xbced32f9	-0.02895497
238	0x3cdf3e80	0.027251482
239	0x3d36c192	0.044618197
240	0x3d35d780	0.04439497
241	0x3ccc654b	0.024950644
242	0x3c89b61d	0.016810471
243	0xbadabc0a	-0.001668812
244	0xbc944525	-0.018099377
245	0xbc96858d	-0.018374229
246	0xbd1f0432	-0.03882236
247	0xbc0257c0	-0.007955492
248	0xbcf2785b	-0.029598406
249	0x3d462736	0.04837724
250	0x3cffd9a6	0.031231713
251	0xba0cea6f	-0.00053755095
252	0x3d4b7370	0.049670637
253	0x3c965e8e	0.018355634
254	0x3af65b4f	0.0018795523
255	0xbb5acd4e	-0.0033386531

fc1.bias f4 [120]
0	0x3d0f53c6	0.034992002
1	0x3d37fd7f	0.044919487
2	0x3cf819d5	0.030285755
3	0x3c6aa442	0.014321389
4	0xbce44345	-0.027864108
5	0x3d130440	0.035892725
6	0x3b40347f	0.0029328165
7	0x3cb68b67	0.02228327
8	0x3ce73e6c	0.028228007
9	0xbc383f12	-0.011245506
10	0x3c8be25c	0.01707571
11	0xbc81c302	-0.015840057
12	0xbd42023d	-0.047365416
13	0xbd22f810	-0.039787352
14	0xbd167aa0	-0.036738038
15	0x3c0b0601	0.008485318
16	0x3d37d01b	0.0448762
17	0xbcae0f84	-0.021247633
18	0xbb5f090e	-0.0034032497
19	0x3d389e33	0.045072746
20	0xbcb8b036	-0.022544961
21	0x3c1853a9	0.00929729
22	0xbd055e11	-0.03256041
23	0x3b2b0849	0.0026097468
24	0x3a8c1d11	0.0010689815
25	0x3c50fb6f	0.012755259
26	0xbcf67a94	-0.030087747
27	0x3b301265	0.0026866433
28	0xbd32bfbc	-0.043639883
29	0x3c5dc927	0.013536728
30	0xbd2c02f5	-0.041995008
31	0xbd0a5cbf	-0.033779856
32	0xbaa4d577	-0.0012575825
33	0xbd373fa2	-0.04473842
34	0x3c21f8d4	0.009885985
35	0xbd3b95c8	-0.04579714
36	0x3c11bcc3	0.008895102
37	0xbd2d653d	-0.042332876
38	0x3cbb63a3	0.022874659
39	0x3d0cd95f	0.03438699
40	0x3a6082db	0.0008564421
41	0xbd2dac28	-0.04240051
42	0x3d1a4806	0.037666343
43	0xbc061244	-0.008183066
44	0xbd45d617	-0.048299875
45	0xbbdf2437	-0.006809737
46	0x3c8f4f31	0.017493816
47	0x3d28514d	0.04109316
48	0x3c35825f	0.011078446
49	0x3d2a940d	0.0416451
50	0x3ce51c97	0.027967734
51	0x3d288107	0.041138675
52	0x3c1eda80	0.009695649
53	0xbcd6fbcf	-0.026243119
54	0xbcf9e7dc	-0.030506067
55	0xbd17b235	-0.037035186
56	0x3c1fdc80	0.009757161
57	0xbd00c15f	-0.031434413
58	0x3d309cd7	0.043118324
59	0x3b8ccbd7	0.0042967605
60	0xbd18c3aa	-0.037295975
61	0xbd215dd6	-0.03939613
62	0xbc44037d	-0.011963722
63	0xbd27f59a	-0.04100571
64	0xbc4e9b9e	-0.012610344
65	0x3d2b0d6c	0.041760847
66	0xba311641	-0.000675533
67	0xbcc82441	-0.02443135
68	0xbcb09532	-0.021555517
69	0x3c828958	0.015934631
70	0xbd01c4f6	-0.031681977
71	0xbc162a7e	-0.009165404
72	0x3caae315	0.020860234
73	0xbc36d84f	-0.01115997
74	0xbd32bf0b	-0.043639224
75	0xbd3ab56c	-0.045583174
76	0xbb180423	-0.0023195825
77	0xbd2bb20a	-0.04191784
78	0x3c2c5ca8	0.010520138
79	0x3d0c49ea	0.034250177
80	0x3c0d90a9	0.008640447
81	0x3c9f3df0	0.019438714
82	0xbd120500	-0.0356493
83	0x3cb52013	0.02211002
84	0x3d372b80	0.04471922
85	0x3d29b3bf	0.041431185
86	0xbd21a35e	-0.03946244
87	0xbc942b5e	-0.018087085
88	0x3c1aa8ac	0.009439629
89	0x393444d3	0.00017191777
90	0xbc2bcf8c	-0.010486495
91	0xbcda0e7d	-0.026618237
92	0x3b8712ba	0.0041221054
93	0x3c557653	0.013028699
94	0x3d43a128	0.047761112
95	0x3cd7739e	0.026300248
96	0xbd11335d	-0.035449374
97	0x3bef77ec	0.007307997
98	0x3ce7eb19	0.028310345
99	0xbbdafd9f	-0.006683066
100	0x3c507228	0.0127225295
101	0x3cb43242	0.021996621
102	0xbcb76f20	-0.022391856
103	0x3cb57114	0.022148646
104	0x3d4e2baf	0.05033463
105	0x3d03d3d9	0.032184456
106	0xbd2ade79	-0.041716073
107	0x3d47f138	0.04881403
108	0xbcf2405c	-0.029571705
109	0xbcc6e15e	-0.024277385
110	0xbd0d1b50	-0.034449875
111	0xbd188f0d	-0.0372458
112	0xbce64e17	-0.028113408
113	0x3d3076bf	0.043081995
114	0xbd238946	-0.039925836
115	0xbd1fa0ea	-0.03897182
116	0x3a53eb6c	0.0008084092
117	0xbc41dc0d	-0.011832249
118	0x3d398506	0.045292877
119	0x3ced3541	0.028956058

fc2.weight f4 [84, 120]
0	0xbca8b0cc	-0.020592116
1	0xbd1bb985	-0.038018722
2	0xbd41cdf1	-0.04731554
3	0xbe074135	-0.13208468
4	0x3db51321	0.08841539
5	0xbd300247	-0.04297092
6	0x3d379ce1	0.044827346
7	0x3cd7ae2a	0.026328165
8	0x3db5f633	0.088848494
9	0xbd4252c3	-0.04744221
10	0x3d82094e	0.06349431
11	0xbdda529e	-0.10660289
12	0x3c883e4b	0.016631266
13	0x3c94e88f	0.018177299
14	0x3d61c222	0.05511678
15	0x3db452ee	0.0880488
16	0x3db1065c	0.08643791
17	0x3d97e14f	0.07416021
18	0x3d9bb73d	0.07603309
19	0xbd748d0e	-0.059704833
20	0x3d14fc37	0.036373343
21	0x3da0f73d	0.07859657
22	0xbdcfa700	-0.101392746
23	0xbda39c7b	-0.07988831
24	0x3de5b130	0.112154365
25	0x3d203467	0.039112475
26	0xbb1c0521	-0.0023806768
27	0x3cbe97d3	0.023265755
28	0x3d9821e5	0.0742834
29	0xbd8bcc10	-0.06826031
30	0x3e0085f5	0.125511
31	0x3d3b386f	0.045708116
32	0x3d422e59	0.04740748
33	0xbda67a5b	-0.08128806
34	0x3bbaea4b	0.0057041994
35	0x3d850a65	0.06496123
36	0xbce1d98d	-0.027569557
37	0x3dd69f1c	0.104795665
38	0xbda7cfd1	-0.08193935
39	0x3bad7ef5	0.0052946755
40	0x3daf5341	0.08560801
41	0x3d98d766	0.07462959
42	0xbb2edc88	-0.002668174
43	0x3d22a918	0.03971204
44	0xbd764cdf	-0.060131904
45	0xbe0b7364	-0.13618237
46	0xbda57a5c	-0.08079979
47	0x3d9db944	0.07701352
48	0xbd7228e3	-0.059121024
49	0x3b05ef3c	0.0020436784
50	0x3d56e4ec	0.05246441
51	0x3cea773a	0.028621305
52	0xbdcda89c	-0.10041925
53	0xbd33bd25	-0.043881554
54	0x3d8ffec1	0.07031012
55	0x3c3d8353	0.011566955
56	0x3cd13b6d	0.025541032
57	0x3d041e0a	0.03225521
58	0x3c74c78e	0.014940156
59	0xbd97950f	-0.074014775
60	0x3c6efb67	0.014586306
61	0x3d9d2cff	0.07674598
62	0xbc3e4257	-0.011612496
63	0x3dcbf7ea	0.09959395
64	0xbccc26c7	-0.024920834
65	0xbdc82f17	-0.09774607
66	0xbd2e5632	-0.04256267
67	0x3d2259ab	0.039636295
68	0x3d45313f	0.048142668
69	0x3db87096	0.09005849
70	0x3d724204	0.05914499
71	0x3d764e12	0.060133047
72	0x3d3b64d8	0.04575047
73	0x3d52bf63	0.05145205
74	0x3ddea736	0.10871737
75	0xbbb8f574	-0.0056444947
76	0x3d8d9ee2	0.0691507
77	0xbdb6f461	-0.0893333
78	0x3bf95bbe	0.0076098135
79	0xbd2e4f38	-0.042556018
80	0xbd6c9b07	-0.057765033
81	0xba8b3b73	-0.0010622576
82	0x3d7cfc4e	0.061764054
83	0xbc7629d4	-0.015024621
84	0x3cee1e16	0.02906708
85	0x3c7df301	0.015499831
86	0xbdaca5c9	-0.084300585
87	0x3d8ad477	0.06778806
88	0xbc57250b	-0.01313139
89	0xbdad86f7	-0.08473008
90	0x3d64013a	0.055665232
91	0x3de65d40	0.11248255
92	0xbd700671	-0.058599893
93	0x3d9aa58a	0.07551105
94	0x3d95bbf5	0.073112406
95	0x3d2199c3	0.03945328
96	0x3e0463fa	0.12928763
97	0x3d4526f7	0.048132863
98	0x3c6335ca	0.013867805
99	0x3e3fb701	0.18722154
100	0xbdb0b416	-0.08628099
101	0xbcf5c321	-0.030000271
102	0x3d77359f	0.06035387
103	0x3d0f136d	0.034930635
104	0x3b5a56eb	0.0033315967
105	0x3cfad287	0.030617965
106	0x3cdb026c	0.026734553
107	0x3b05eeb4	0.0020436468
108	0xbdd76cc0	-0.10518789
109	0x3c95f62c	0.01830586
110	0xbda80262	-0.082035795
111	0x3dc5b227	0.096531205
112	0xbd026680	-0.031836033
113	0x3d2f069f	0.042730924
114	0xbdb311b5	-0.08743612
115	0x3c8c5465	0.017130086
116	0xbd259be7	-0.040431883
117	0xbd9dea68	-0.07710725
118	0x3dc1c544	0.094614536
119	0xbdbe7bcd	-0.09300957
120	0xbda4d344	-0.08048108
121	0x3d7288d0	0.059212506
122	0xbb945ac7	-0.004527423
123	0x3d566005	0.052337665
124	0x3d8000a2	0.06250121
125	0x3c1eddca	0.009696433
126	0xbd6361c2	-0.05551315
127	0xbc9b6b20	-0.01897198
128	0xbd3abd4a	-0.045590676
129	0x3dabbe96	0.08385961
130	0xbc2a381f	-0.010389357
131	0xbd01b816	-0.0316697
132	0x3dacad0a	0.08431442
133	0x3cbb131b	0.022836259
134	0x3d8b2bfb	0.06795498
135	0x3ca5af06	0.02022506
136	0x3d8ffab3	0.07030239
137	0xbd0364b4	-0.03207846
138	0x3d3f1716	0.046652876
139	0x3c63bdc3	0.013900223
140	0x3cfe82f1	0.031068297
141	0xbd982fd8	-0.074310005
142	0xbd967349	-0.07346208
143	0xbd2b265e	-0.041784637
144	0xbcc45ed6	-0.023971003
145	0xbdbac47e	-0.09119509
146	0x3caf7810	0.021419555
147	0x3debf869	0.1152199
148	0x3dba5913	0.09099021
149	0x3d837b6b	0.064200245
150	0xbdaa5cbb	-0.08318468
151	0x3d858712	0.06519903
152	0x3da62517	0.08112543
153	0xbd9de9d5	-0.077106155
154	0x3dd265a8	0.10273296
155	0x3d399c5d	0.045315135
156	0x3dd7fd63	0.105463766
157	0xbcc90c58	-0.024542019
158	0x3dfb6695	0.12275425
159	0x3d0fad52	0.0350774
160	0xbdc4c511	-0.096079
161	0xbd027696	-0.031851374
162	0xbd4e4397	-0.050357427
163	0xbde439f0	-0.11143863
164	0x3d8dd578	0.069254816
165	0xbcc2aaa3	-0.023763007
166	0xbc24e1ec	-0.01006363
167	0x3db240fb	0.087038
168	0x3d9d137b	0.07669731
169	0xbd0aa6df	-0.033850547
170	0xbdb8aa48	-0.090168536
171	0x3d663091	0.05619866
172	0x3dab6147	0.083681636
173	0x3d9769e1	0.07393242
174	0xbdd09a12	-0.101856366
175	0xbda7f48c	-0.082009405
176	0x3ca65c97	0.020307822
177	0x3dbade7b	0.09124466
178	0x3d492a41	0.049112562
179	0x3da066e6	0.07832126
180	0x3d52db02	0.051478393
181	0x3c3c9ee4	0.011512492
182	0x3d9c5f0b	0.076353155
183	0x3b83ccfa	0.004022238
184	0xbd37c03d	-0.044861067
185	0x3bcf8635	0.0063331374
186	0xbda8a4a2	-0.08234526
187	0xbd94f789	-0.07273776
188	0x3d7b0ac6	0.06128957
189	0x3cf06e07	0.02934934
190	0xbe1a1516	-0.15047106
191	0x3d9691d1	0.07352031
192	0xbd927011	-0.07150281
193	0x3de1d4fd	0.110269524
194	0xbd4da953	-0.05021031
195	0x3da83d5d	0.08214829
196	0x3d779115	0.060441095
197	0xbc968365	-0.0183732
198	0xbd8e8667	-0.06959229
199	0xbd08db97	-0.033412542
200	0x3d397315	0.045275766
201	0xbd494ca8	-0.04914537
202	0x3d2722c2	0.040804632
203	0x3d27b378	0.04094264
204	0xbdc1249e	-0.09430812
205	0x3c42e675	0.011895766
206	0x3d20fe4a	0.03930501
207	0x3c8d0973	0.01721642
208	0x3e1228ab	0.14273326
209	0x3cf97eed	0.03045603
210	0xbd0dcacc	-0.03461723
211	0x3d64a94d	0.05582552
212	0x3cf2bfe2	0.029632512
213	0x3c8b1be5	0.016981075
214	0x3d97397c	0.07384011
215	0xbb63f7dd	-0.003478519
216	0xbd8b9450	-0.06815398
217	0xbda2e142	-0.07953121
218	0xbd8e2b89	-0.069418974
219	0x3e14637d	0.14491077
220	0xbd23b49c	-0.039967164
221	0xbd4bb613	-0.049734186
222	0x3d1f9112	0.03895671
223	0xbd9ed6a3	-0.077557825
224	0xbdac293e	-0.08406304
225	0x3d5b506b	0.05354349
226	0xbdbd80dc	-0.092530936
227	0xbcf6f471	-0.030145856
228	0x3db9ce62	0.090725675
229	0x3da45701	0.08024407
230	0x3d8d067c	0.068860024
231	0x3daa0687	0.08302026
232	0xbcbc9f74	-0.023025252
233	0xbda6d416	-0.08145921
234	0xbd9c181f	-0.07621788
235	0xbbce6c4d	-0.0062995316
236	0xbc4f4ee8	-0.01265309
237	0x3c064247	0.008194513
238	0xbd619ae8	-0.05507937
239	0x3dbf09e3	0.093280576
240	0x3d97f9d4	0.07420698
241	0xbd164972	-0.036691137
242	0x3bc2e6f8	0.005947944
243	0xbc2a9d38	-0.01041346
244	0xbd8ebfc2	-0.06970169
245	0xbc966c3e	-0.01836216
246	0xbd94bf34	-0.072630316
247	0x3db41203	0.08792498
248	0xbd10b4ed	-0.035328794
249	0x3c96a979	0.018391358
250	0xbd92cd78	-0.07168096
251	0x3e012fba	0.12615862
252	0xbd47626d	-0.04867785
253	0x3d9180f7	0.07104676
254	0xbd645d02	-0.05575276
255	0x3d8004d0	0.06250918

fc2.bias f4 [84]
0	0xbc7f7582	-0.015591981
1	0xbd2ff1d7	-0.042955246
2	0xbc620428	-0.013794936
3	0xbdaab014	-0.083343655
4	0xbb9d7d1d	-0.0048061744
5	0xbd892cee	-0.06698023
6	0xbd31631d	-0.043307412
7	0xbd80ead2	-0.062947884
8	0xbbb7af2b	-0.0056055984
9	0x3d41801c	0.047241315
10	0xbbc48dfe	-0.005998372
11	0x3d3d1539	0.046162818
12	0xbd240410	-0.040042937
13	0xbd95ab02	-0.07308008
14	0x3b9ea722	0.004841701
15	0xbc911bba	-0.017713416
16	0xbc5fdb38	-0.013663106
17	0x3d9bed59	0.0761363
18	0x3c640ff5	0.01391982
19	0x3d2c5eac	0.042082474
20	0x3cc930e8	0.024559453
21	0x3da412d9	0.080114074
22	0x3d86fc5f	0.06591105
23	0x3d6cf13c	0.057847247
24	0xbd5cbaf5	-0.053889234
25	0xbd541de2	-0.05178631
26	0x3d730450	0.059330285
27	0xbcd49666	-0.025950622
28	0xbd1ab14f	-0.03776675
29	0xbd9645cc	-0.073375314
30	0x3d7ea4bb	0.062168818
31	0xbd21304c	-0.0393527
32	0xbd1d26b0	-0.038366973
33	0xbd8ba244	-0.06818059
34	0xbd095089	-0.03352407
35	0xbd9b73d5	-0.075904526
36	0xbbe3e6fb	-0.0069550253
37	0xbdac8301	-0.084234245
38	0xbd2b85ff	-0.041875836
39	0xba56bf63	-0.0008191971
40	0x3d79b859	0.060966823
41	0xbd8a2ad5	-0.06746451
42	0x3bba3860	0.00568299
43	0x3ce820c2	0.028335933
44	0x3d2380db	0.039917808
45	0x3dbd2d07	0.09237104
46	0x3c78ce75	0.015185942
47	0x3d937855	0.07200686
48	0xbd2c46a6	-0.042059563
49	0x3d7fd71a	0.062460996
50	0x3d2aa7fc	0.04166411
51	0xbd985f76	-0.07440083
52	0x3cf91151	0.030403765
53	0xbd5c7170	-0.05381912
54	0xbc713bb1	-0.014723704
55	0xbd606415	-0.054782946
56	0x3da5ef51	0.081022866
57	0x3c9aef95	0.01891307
58	0xbd4ddf7d	-0.050261963
59	0x3d968560	0.07349658
60	0xbd1c3570	-0.0381369
61	0xbd183ffb	-0.03717039
62	0xbd6ff0bf	-0.058579203
63	0x3cd07cab	0.025450071
64	0x3d9aab67	0.07552224
65	0xbd9c0952	-0.07618965
66	0xbbcaee78	-0.0061929785
67	0xbd218ae6	-0.039439104
68	0x3dc96f9b	0.0983574
69	0x3d7972f6	0.06090065
70	0xbdb3d7c5	-0.08781389
71	0x3d916842	0.07099964
72	0x3c978d60	0.01850003
73	0x3d8c7098	0.06857413
74	0xbc87640f	-0.016527204
75	0x3d14b010	0.03630072
76	0x3db69bfc	0.089164704
77	0xbcc8977b	-0.024486294
78	0x3d49d841	0.0492785
79	0x3d12e9f2	0.03586764
80	0xbca1186e	-0.01966497
81	0xbd735f59	-0.059417102
82	0x3d358d7a	0.044324376
83	0xbd36eae8	-0.044657618

fc3.weight f4 [33, 84]
0	0x3e3d885a	0.18509045
1	0xbd8755ae	-0.06608139
2	0xbcd165ac	-0.025561176
3	0xbc33e389	-0.010979542
4	0xbd808d28	-0.062769234
5	0x3d831331	0.06400145
6	0xbce0ded1	-0.027449997
7	0x3d8ac308	0.067754805
8	0x3e010017	0.1259769
9	0x3d716e86	0.058943294
10	0xbc9fa3a8	-0.019487217
11	0x3c22446f	0.009904011
12	0xbd89675f	-0.067091696
13	0x3d8328d6	0.06404273
14	0xbdaa1eb4	-0.083066374
15	0x3dba17c5	0.09086565
16	0xbdd89e09	-0.10577018
17	0x3d9ac34a	0.0755678
18	0xbd30d784	-0.04317428
19	0xbb0cb0cc	-0.0021467684
20	0xbdb20787	-0.08692842
21	0x3d7a3fa2	0.06109584
22	0x3dc80aee	0.0976771
23	0x3e13b5b3	0.14424782
24	0xbe0f441f	-0.1399083
25	0x3dd2f92b	0.10301431
26	0x3d79aee3	0.0609578
27	0x3c4df0bc	0.012569603
28	0xbd3673e4	-0.044544116
29	0xbcdbc707	-0.026828302
30	0xbda7a17d	-0.08185098
31	0xbdadc51c	-0.08484861
32	0xbb645895	-0.0034842838
33	0xbd8f0705	-0.06983761
34	0x3c96bee1	0.018401565
35	0x3d9b898d	0.07594595
36	0xbe04070e	-0.12893316
37	0x3cac5885	0.021038303
38	0x3baacec1	0.0052126353
39	0x3d3dfb5f	0.046382304
40	0xbd53fb32	-0.05175323
41	0xbde09dc2	-0.1096759
42	0xbc0a1307	-0.008427388
43	0xbd960a0e	-0.073261365
44	0x3e18fba8	0.14939749
45	0xbdbf07f2	-0.09327687
46	0xbd3960d7	-0.04525837
47	0x3bed6662	0.007244871
48	0x3cb60423	0.02221877
49	0x3d97cafb	0.07411762
50	0x3e2fd4a5	0.17170961
51	0x3d441421	0.04787076
52	0x3cfcda02	0.030865673
53	0x3d3826b0	0.04495877
54	0xbc3aaeeb	-0.011394243
55	0x3d4453c9	0.047931466
56	0xbd0eb298	-0.03483829
57	0xbd494069	-0.049133692
58	0x3d93a2bf	0.07208776
59	0xbd306cb1	-0.043072406
60	0xbdd928e6	-0.10603504
61	0x3db08de6	0.08620815
62	0xbdfbaab4	-0.122884184
63	0xbc91b781	-0.017787697
64	0x3d4c5d4a	0.049893655
65	0x3d77177a	0.060325123
66	0xbdbf73e3	-0.093482755
67	0xbd9780ac	-0.07397589
68	0xb9ac6cfd	-0.000328876
69	0x3e21bc1f	0.15794419
70	0xbdf626a4	-0.12019089
71	0xbcb503ef	-0.022096602
72	0x3dafd592	0.08585657
73	0xbcecc244	-0.028901227
74	0xbdf5a1d0	-0.11993754
75	0x3ca174ad	0.019708956
76	0x3d168c85	0.036755104
77	0x3d0a98ef	0.033837255
78	0x3d98a8c3	0.07454064
79	0xbacfaabb	-0.0015843728
80	0xbdf8c857	-0.12147587
81	0x3dab2cf5	0.08358184
82	0xbd81ecbc	-0.063439816
83	0x3dde73ca	0.10861929
84	0xbc38eb76	-0.011286607
85	0x3d96ebd1	0.07369197
86	0x3dc9a0a6	0.098450944
87	0x3d08f652	0.033438034
88	0x3d1697a4	0.03676571
89	0x3d79f5ed	0.06102555
90	0xbd1b2c79	-0.03788421
91	0xbd2569fc	-0.040384278
92	0x3e658c4d	0.22416802
93	0x3da0076c	0.078139156
94	0x3ddbd857	0.10734623
95	0x3cbe34cd	0.023218537
96	0x3d9ae66a	0.07563479
97	0x3c375eb2	0.011192011
98	0xbd4d6b13	-0.050150942
99	0xbd9dd2f5	-0.077062525
100	0x3dc10278	0.09424299
101	0x3da766e4	0.08173922
102	0x3c771023	0.015079531
103	0xbc2573c6	-0.010098403
104	0xbb0404f0	-0.0020144545
105	0xbb98f2e6	-0.0046676276
106	0xbd4717dc	-0.04860674
107	0x3ca0f5d0	0.019648463
108	0x3d3ea669	0.04654542
109	0xbdb65111	-0.08902181
110	0xbd09ad59	-0.033612583
111	0xbc5ae552	-0.013360338
112	0xbd8ea27e	-0.06964587
113	0xbd023388	-0.031787425
114	0xbcafe968	-0.021473601
115	0xbc8c52dc	-0.017129354
116	0xbdb4ed02	-0.08834268
117	0xbd2c6fb0	-0.0420987
118	0xbd7aa75b	-0.06119476
119	0xbdbb23dd	-0.091377
120	0xbdb3cb2c	-0.08778986
121	0xbdcbbc0a	-0.09947975
122	0x3b92540d	0.004465586
123	0x3e06584a	0.13119617
124	0x3d86075b	0.06544372
125	0xbdc99f27	-0.09844809
126	0xbe09e627	-0.13466702
127	0x3c55f8af	0.013059779
128	0xbded7ae1	-0.11595703
129	0xbe97c595	-0.2964293
130	0xbd3fb676	-0.046804868
131	0x3d7bfc92	0.061520167
132	0xbe3efe8d	-0.18651791
133	0xbdbdd5f2	-0.092693225
134	0xbd86a268	-0.06573945
135	0xbcf58f4a	-0.029975552
136	0xbda8f0b5	-0.08249036
137	0xbc9f27a6	-0.019428086
138	0xbd3ffa3b	-0.046869498
139	0x3c165b97	0.00917711
140	0xbe5d6bf3	-0.2162321
141	0x3d73fb7a	0.059566
142	0x3d9e451e	0.07728027
143	0x3c911b33	0.017713165
144	0x3e2b5416	0.16731295
145	0xbc41645b	-0.011803712
146	0xbd946dd3	-0.0724751
147	0xbdb49e82	-0.088192955
148	0x3d886c98	0.066613376
149	0xbdaf659b	-0.085643016
150	0x3cc2402c	0.02371224
151	0xbd92d6fd	-0.07169912
152	0x3e246fb2	0.16058233
153	0x3d3866f9	0.045020077
154	0x3d5907bc	0.05298589
155	0x3d646be9	0.055766974
156	0x3d811a79	0.063038774
157	0x3dbdcde8	0.09267789
158	0xbde850bb	-0.11343523
159	0x3e0647d9	0.13113345
160	0x3d8843b4	0.06653538
161	0x3d9d6da3	0.07686927
162	0x3dc1e2ca	0.09467085
163	0x3db776ff	0.089582436
164	0xbd337259	-0.043810222
165	0xbcffdc7e	-0.031233069
166	0xbc1594f0	-0.009129748
167	0xbd9850f0	-0.074373126
168	0xbdcd8c02	-0.1003647
169	0xbd9adedb	-0.075620376
170	0xbd8f26f1	-0.06989849
171	0xbdb3b4bf	-0.08774709
172	0x3d38fd9c	0.045163736
173	0xbc012f6a	-0.00788484
174	0x3dac5651	0.08414901
175	0x3cfb58c0	0.030681968
176	0x3b4b99c7	0.0031067
177	0x3db62664	0.08894041
178	0x3db822c1	0.08991004
179	0x3e37f3f0	0.17964149
180	0xbd8159a4	-0.06315926
181	0xbdbc3718	-0.09190196
182	0xbc9515c6	-0.018198859
183	0xbd149103	-0.036271106
184	0xbd5d77c5	-0.0540693
185	0xbddac890	-0.106827855
186	0x3cd9598c	0.026531957
187	0x3b20a120	0.00245101
188	0x3cf508d0	0.029911429
189	0x3daae69d	0.08344767
190	0xbdcc1ed0	-0.099668145
191	0xbce2df87	-0.027694477
192	0x3e017121	0.12640812
193	0xbda2a2ad	-0.07941184
194	0x3c82f13b	0.015984168
195	0xbddb1041	-0.106964596
196	0xbd81b551	-0.063334115
197	0x3ccedbdd	0.025251323
198	0xbd0a8e13	-0.0338269
199	0xbd0a0a55	-0.03370126
200	0xbe0c6c20	-0.13713121
201	0x3ded8f9d	0.11599658
202	0x3d11f945	0.035638113
203	0xbda013cf	-0.07816278
204	0x3d8c7210	0.06857693
205	0x3daf07a9	0.08546383
206	0x3d6f1ed5	0.058379013
207	0xbcea6ec5	-0.028617272
208	0xbd2cd1ad	-0.04219215
209	0xbddadc46	-0.10686545
210	0xbc407a4c	-0.011747908
211	0xbdeb4308	-0.114873946
212	0xbd972741	-0.07380534
213	0x3c8a6824	0.016895361
214	0x3dd39dc7	0.10332828
215	0x3d5eca3f	0.054392096
216	0xbd1d7779	-0.038444016
217	0xbe08e2ab	-0.13367717
218	0x3cab78eb	0.020931682
219	0xbd94a3fd	-0.07257841
220	0xbe085677	-0.13314234
221	0xbe06a8ea	-0.13150373
222	0x3cbe68ff	0.023243425
223	0xbdd46310	-0.10370457
224	0xbc9d70fa	-0.01921891
225	0x3d16698f	0.036721762
226	0x3ccfc224	0.025361128
227	0x3dc733a5	0.09726647
228	0x3d94c5f6	0.072643206
229	0x3ce9c76a	0.02853747
230	0x3d9fc8e0	0.07801986
231	0x3c6ce588	0.014459021
232	0x3db75ef0	0.08953655
233	0x3d3495ed	0.044088293
234	0x3d33cf83	0.04389907
235	0x3cb16ee5	0.021659324
236	0x3e402153	0.18762712
237	0x3e10f739	0.14156808
238	0x3de1e39f	0.110297434
239	0xbd35cb67	-0.044383433
240	0xbd0e60fe	-0.034760468
241	0xbdb1af29	-0.08675987
242	0xbd3f994e	-0.046777062
243	0x3dcbd2ea	0.09952338
244	0x3dee6622	0.11640574
245	0xbd4ffcf2	-0.050778337
246	0x3d220e96	0.03956469
247	0x3daad413	0.08341231
248	0xbd4b52fd	-0.04963969
249	0x3dcd1b95	0.100150265
250	0x3dc31c8f	0.095269315
251	0xbde24b97	-0.11049574
252	0xbd74250f	-0.059605654
253	0x3d3462f4	0.04403968
254	0x3d2efa92	0.04271943
255	0x3c25627b	0.01009428

fc3.bias f4 [33]
0	0x3dbc4494	0.09192768
1	0xbddb70ab	-0.10714849
2	0x3e14d893	0.14535742
3	0xbdd96590	-0.10615075
4	0xbd93b97b	-0.07213112
5	0x3d610c0d	0.054943133
6	0xbd530ea3	-0.05152763
7	0x3d5ab249	0.053392682
8	0xbd41046f	-0.04712337
9	0x3d035638	0.032064646
10	0xbcefdcf5	-0.029280165
11	0xbdda1739	-0.106489606
12	0x3d463822	0.048393376
13	0xbcee37c2	-0.029079322
14	0xbd74aa71	-0.059732858
15	0x3d9f237b	0.07770439
16	0x3da52c20	0.08065057
17	0xbcfd7b33	-0.030942535
18	0x3d4b0e03	0.04957391
19	0xbd8dc2f7	-0.06921952
20	0xbd21691e	-0.03940689
21	0xbdf5eb1b	-0.120077334
22	0x3da08847	0.07838493
23	0x3ca6c31e	0.020356711
24	0x3d35687d	0.0442891
25	0xbdaa5e61	-0.083187826
26	0x3d096289	0.033541236
27	0xbcf95ca5	-0.030439684
28	0xbc8040ed	-0.015655959
29	0x3caa6915	0.02080206
30	0xbd38bdaf	-0.04510277
31	0xbdb175bd	-0.08665035
32	0x3b8af0e2	0.0042401413
