char_net0.pt (torch, 257887 bytes, 10 tensors)

conv1.weight f4 [6, 1, 5, 5]
0.2833 0.30027556 0.15339479 0.466124 0.23098005 -0.021947594 0.16020422 0.53485924
0.3982105 0.42857295 -0.007906473 0.24836954 0.47021437 0.42654565 0.43076566 -0.027399791
0.2690699 0.25017157 0.55288386 0.31400475 0.23707159 -0.00026001057 0.32005084 0.4091096
0.32902277 -0.12870917 -0.160452 -0.029487984 0.22508083 0.27574885 -0.026334072 -0.14952764
0.089241534 -0.11512029 0.19190589 0.14865513 0.18466394 -0.0548735 0.24097644 0.07049747
0.18944037 -0.14899883 0.010925392 -0.1133662 0.045887787 -0.078661375 -0.11626913 -0.10675575
0.07454138 -0.11180294 -0.013649774 0.005812512 0.04336591 -0.09456053 -0.0995087 -0.10250632
-0.08354421 -0.042278476 -0.0044840807 0.24315028 0.15728737 -0.11954406 -0.09051985 0.21262401
0.20370378 -0.15873055 -0.12424448 -0.09980805 0.09015234 0.1670457 0.0031188703 0.07247495
-0.059996 0.17590185 0.20448652 0.2541397 0.033572722 0.33155417 0.05361731 0.22956043
0.18774924 0.09201374 0.4309933 0.21217442 0.110919714 0.29288363 0.48256907 0.3494471
0.20668425 0.4313005 0.4090707 0.35740316 0.5143337 0.41052812 0.10509432 0.3501541
0.15446602 0.39521322 0.31121293 0.4223677 0.027891481 0.14922173 -0.01860688 0.17695369
-0.112702936 0.12582536 0.16177022 -0.12190507 0.17857265 0.17867015 0.07495649 -0.16547267
0.08706006 0.1621812 -0.119996764 -0.043452907 0.021585627 -0.02752828 -0.030515475 0.030687016
0.033673357 -0.20823784 -0.1680792 0.1409882 0.08273611 -0.11440458 0.03474356 0.17256354
0.20191818 0.07919664 0.029705817 0.21869634 0.19849578 0.013149687 0.13173407 0.1080829
-0.009027556 0.3512928 0.3346624 0.03964176 0.14496006 0.17098974 0.32711357 0.15863535
0.31124428 0.2589217 0.050092544 0.21567366 0.11473608 0.3309406
00000000: b30c 913e b8bd 993e 8613 1d3e cea7 ee3e
00000010: 0986 6c3e 71cb b3bc 930c 243e 89ec 083f
00000020: 3fe2 cb3e ea6d db3e 278a 01bc 9654 7e3e
00000030: f0bf f03e 3164 da3e 518d dc3e 8775 e0bc
00000040: 88c3 893e 7d16 803e cc89 0d3f 3bc5 a03e
00000050: e5c2 723e 0752 88b9 b4dd a33e d076 d13e
00000060: ac75 a83e 56cc 03be 874d 24be c990 f1bc
00000070: 977b 663e f42e 8d3e 8dba d7bc c61d 19be
00000080: 44c4 b63d 30c4 ebbd fa82 443e 0d39 183e
00000090: 8b18 3d3e 09c3 60bd 87c2 763e fa60 903d
000000a0: a8fc 413e 2693 18be 6a00 333c 8a2c e8bd
000000b0: d5f4 3b3d 3719 a1bd 821e eebd c2a2 dabd
000000c0: 27a9 983d f1f8 e4bd 4da3 5fbc e276 be3b
000000d0: 74a0 313d f3a8 c1bd 38cb cbbd d5ee d1bd
000000e0: 3a19 abbd 322c 2dbd 32ef 92bb 63fc 783e
000000f0: f10f 213e 84d3 f4bd 7962 b9bd 1cba 593e
00000100: b997 503e 438a 22be e473 febd 2a68 ccbd
00000110: caa1 b83d 070e 2b3e f665 4c3b bf6d 943d
00000120: 5ebe 75bd 9d1f 343e ea64 513e 991e 823e
00000130: 8d83 093d 78c1 a93e d39d 5b3d e411 6b3e
00000140: 5641 403e b371 bc3d 27ab dc3e 4044 593e
00000150: e029 e33d d8f4 953e 4b13 f73e bbea b23e
00000160: 09a5 533e 6bd3 dc3e b771 d13e 8cfd b63e
00000170: 60ab 033f be30 d23e b13b d73d 6647 b33e
00000180: 572c 1e3e 6359 ca3e 4d57 9f3e 9440 d83e
00000190: ad7c e43c 95cd 183e 756d 98bc 5933 353e
000001a0: ccd0 e6bd 5dd8 003e 18a7 253e 5ea9 f9bd
000001b0: c0db 363e 4ff5 363e ca82 993d ab71 29be
000001c0: 8b4c b23d d412 263e ddc0 f5bd adfb 31bd
000001d0: 57d4 b03c fd82 e1bc 97fb f9bc 5663 fb3c
000001e0: 13ed 093d 4d3c 55be f41c 2cbe 365f 103e
000001f0: 8d71 a93d f34c eabd 434f 0e3d 7fb4 303e
00000200: a4c3 4e3e d931 a23d 9d59 f33c eff1 5f3e
00000210: 7a42 4b3e c971 573c 4ce5 063e 915a dd3d
00000220: 50e8 13bc a6dc b33e df58 ab3e 665f 223d
00000230: 6970 143e ef17 2f3e 6e7b a73e 4e71 223e
00000240: 695b 9f3e 6391 843e d72d 4d3d 8ed9 5c3e
00000250: c0fa ea3d 0c71 a93e

conv1.bias f4 [6]
0.08221491 0.18087775 -0.109704845 -0.022999765 -0.15898786 -0.058530204
00000000: 4a60 a83d 0438 393e efac e0bd 016a bcbc
00000010: b7cd 22be 5ebd 6fbd

conv2.weight f4 [16, 6, 5, 5]
-0.015018335 0.016834198 -0.0911741 -0.011187196 -0.038216233 -0.04489817 0.067853846 0.054350954
0.06566668 -0.057893723 0.078148834 0.034398302 0.036366276 -0.025113568 -0.042589135 0.08387687
-0.009149127 -0.0036604786 -0.0027945538 -0.067187116 -0.057212345 -0.07927299 0.08452003 0.06718392
0.023052678 -0.01927508 0.055983987 0.04037221 -0.0005854547 0.037808444 -0.0736732 0.006944903
0.040671572 -0.07248539 -0.039993808 0.0018211028 0.02738572 0.05921922 0.07878429 -0.027652405
0.07561777 -0.059828386 0.010212678 -0.016449394 0.08011006 -0.044747658 0.04577874 -0.05307734
0.025581142 0.013525956 -0.024088986 0.007197045 0.03810375 0.06921517 -0.025256984 -0.075092316
-0.07473391 -0.05909665 -0.07261961 -0.06831938 0.031039562 0.029921198 0.027779821 -0.029489925
0.022320742 -0.062364817 -0.06868889 0.07247281 0.05742889 -0.011694379 0.047095764 0.0053704064
0.0040361783 -0.034839388 -0.021851888 -0.056222115 -0.060717296 -0.023879087 -0.03900357 0.006118201
-0.023376198 0.008178509 -0.06918975 0.057979144 -0.07188895 0.0772823 0.03988901 0.028393455
-0.05538038 -0.00877069 -0.039341122 0.0025034812 0.09599422 -0.041282665 0.038895912 -0.0027901179
-0.033211824 -0.046703726 0.06189163 -0.06308814 0.061609864 -0.006154249 0.07119967 0.027118968
0.007678312 0.01202768 -0.06982196 0.016607435 0.00574323 -0.052077502 0.038427886 -0.04798254
-0.038583733 -0.082160436 -0.07134784 0.0013890021 0.021460958 0.074630186 -0.04226594 0.06279499
-0.0030264026 -0.04569771 -0.0075707557 0.019791193 0.03888015 0.05332462 0.07031626 -0.05069009
0.06609648 -0.013973658 0.045210782 0.028596507 0.075841494 0.0338582 0.0256015 -0.02852986
0.014686677 -0.047280673 -0.073292874 -0.061902635 -0.017400775 -0.03274316 -0.023030063 0.05226632
-0.06271988 0.04706302 -0.009188653 -0.07951827 -0.040889286 0.064172216 0.01605164 -0.0027001526
0.06584874 0.008346349 -0.07297318 -0.052725118 0.040910672 0.08758651 0.0049015335 -0.012285198
-0.025753845 0.09297147 0.07485057 -0.022946449 0.03207754 -0.07847434 0.080874346 0.10486999
0.069307245 0.095112145 0.03572395 0.06657437 0.08131547 0.013307736 0.048709963 0.011424187
-0.013859122 0.06381645 -0.058169782 -0.06323288 0.020866279 0.049071617 0.06966539 0.022474676
0.025651095 0.025948163 -0.027025774 0.03806791 -0.08141533 0.06277495 -0.024881778 -0.04833429
0.081226796 0.01941084 0.037482608 -0.06487741 0.044716362 -0.017540732 -0.041574426 -0.0063529653
0.076404765 -0.0614459 0.01645569 -0.068230726 0.061438274 0.01924169 0.03170691 -0.037472107
-0.08094748 -0.01418541 0.06187622 -0.023894656 -0.037181687 -0.078310445 0.010023302 0.09369723
0.045884416 0.042595968 0.06287389 0.04161585 -0.00034885496 0.06668003 -0.0014815434 0.03211678
-0.072986655 0.08180011 0.049523447 0.04736835 0.068492115 0.0816329 -0.06173359 -0.029571684
0.06652216 -0.052880373 -0.008192034 -0.068572514 -0.0089107305 0.026982402 0.037319865 -0.04559904
-0.07992446 0.08872856 0.016877051 0.056941845 0.022663595 0.076745294 0.017884925 0.028846446
0.038244188 0.022570373 0.044589266 -0.006382157 0.0026955476 -0.06490743 0.025908988 -0.000888109
00000000: 760f 76bc dfe7 893c 7db9 babd 804a 37bc
00000010: a088 1cbd 25e7 37bd f5f6 8a3d 1b9f 5e3d
00000020: 417c 863d f821 6dbd 7f0c a03d 3ce5 0c3d
00000030: cef4 143d f8ba cdbc f271 2ebd a3c7 ab3d
00000040: 38e6 15bc a4e4 6fbb d524 37bb 6699 89bd
00000050: 7e57 6abd e159 a2bd d618 ad3d b997 893d
00000060: f8d8 bc3c c6e6 9dbc 774f 653d 555d 253d
00000070: 3379 19ba 07dd 1a3d fae1 96bd 1292 e33b
00000080: 3c97 263d 3873 94bd 8cd0 23bd 12b2 ee3a
00000090: 0458 e03c da8f 723d a859 a13d 4c87 e2bc
000000a0: 7ddd 9a3d 9c0e 75bd 1453 273c e1c0 86bc
000000b0: be10 a43d 5249 37bd 7d82 3b3d a067 59bd
000000c0: 8b8f d13c f99b 5d3c 4456 c5bc 30d5 eb3b
000000d0: ae12 1c3d afc0 8d3d bce7 cebc 00ca 99bd
000000e0: 180e 99bd 540f 72bd 97b9 94bd 08eb 8bbd
000000f0: ae46 fe3c 4d1d f53c 8292 e33c db94 f1bc
00000100: fdd9 b63c 4072 7fbd c3ac 8cbd a06c 943d
00000110: 8e3a 6b3d c899 3fbc 7de7 403d 3cfa af3b
00000120: eb41 843b bfb3 0ebd bb02 b3bc 2949 66bd
00000130: b3b2 78bd 139e c3bc 35c2 1fbd 317b c83b
00000140: 717f bfbc 27ff 053c 5bb3 8dbd 8a7b 6d3d
00000150: 843a 93bd 2f46 9e3d a962 233d 6499 e83c
00000160: 8ad6 62bd f1b2 0fbc 2824 21bd 7211 243b
00000170: 9e98 c43d 0318 29bd 5251 1f3d 69da 36bb
00000180: 1f09 08bd 684c 3fbd 1482 7d3d 5b34 81bd
00000190: a05a 7c3d 95a9 c9bb 22d1 913d 9928 de3c
000001a0: 599a fb3b bf0f 453c d1fe 8ebd 510c 883c
000001b0: b531 bc3b 384f 55bd 8f66 1d3d 5789 44bd
000001c0: fa09 1ebd bb43 a8bd d11e 92bd 2d0f b63a
000001d0: e4ce af3c b6d7 983d 0d1f 2dbd a99a 803d
000001e0: 9c56 46bb 862d 3bbd 1a14 f8bb 2421 a23c
000001f0: cb40 1f3d eb6a 5a3d f901 903d 69a0 4fbd
00000200: 975d 873d c5f1 64bc f12e 393d 3943 ea3c
00000210: c952 9b3d e5ae 0a3d 3dba d13c 74b7 e9bc
00000220: 63a0 703c 61a9 41bd 931a 96bd 9e8d 7dbd
00000230: 128c 8ebc b11d 06bd 8ba9 bcbc 3515 563d
00000240: 4873 80bd 27c5 403d 018c 16bc 7ada a2bd
00000250: 867b 27bd b96c 833d bb7e 833c 0bf5 30bb
00000260: b4db 863d 20bf 083c f672 95bd 4bf6 57bd
00000270: f391 273d 8e60 b33d 0b9d a03b db47 49bc
00000280: baf9 d2bc d367 be3d 414b 993d 31fa bbbc
00000290: bd63 033d 28b7 a0bd 73a1 a53d 14c6 d63d
000002a0: f5f0 8d3d 28ca c23d 4753 123d 2558 883d
000002b0: ba88 a63d b108 5a3c 1984 473d 832c 3b3c
000002c0: 5f11 63bc 33b2 823d 7043 6ebd 3d80 81bd
000002d0: c2ef aa3c 52ff 483d baac 8e3d d01c b83c
000002e0: 3f22 d23c 3e91 d43c 2865 ddbc 19ed 1b3d
000002f0: 15bd a6bd 2790 803d dfd4 cbbc 2dfa 45bd
00000300: 3c5a a63d 7b03 9f3c 5d87 193d 73de 84bd
00000310: 8128 373d 95b1 8fbc f249 2abd 892c d0bb
00000320: 1a7a 9c3d b2ae 7bbd 15ce 863c 8dbc 8bbd
00000330: b3a6 7b3d c0a0 9d3c 1bdf 013d 5a7c 19bd
00000340: cbc7 a5bd ec69 68bc eb71 7d3d babe c3bc
00000350: d34b 18bd 3a61 a0bd c738 243c 55e4 bf3d
00000360: 4cf1 3b3d 1c79 2e3d 07c4 803d 6275 2a3d
00000370: 85e6 b6b9 8a8f 883d 5930 c2ba e28c 033d
00000380: 077a 95bd d186 a73d 19d9 4a3d 5105 423d
00000390: 9845 8c3d 262f a73d 5cdc 7cbd 5140 f2bc
000003a0: c53c 883d 1799 58bd e237 06bc bf6f 8cbd
000003b0: 50fe 11bc 330a dd3c b7dc 183d 0fc6 3abd
000003c0: 6faf a3bd 52b7 b53d be41 8a3c da3b 693d
000003d0: 01a9 b93c a32c 9d3d 6883 923c 624f ec3c
000003e0: f0a5 1c3d 81e5 b83c 3ca3 363d 6a21 d1bb
000003f0: c9a7 303b 30ee 84bd 163f d43c fccf 68ba

conv2.bias f4 [16]
-0.041427664 0.0649709 -0.027241806 -0.045954406 -0.0035894518 0.04655991 0.078287266 -0.07657959
0.030430712 0.055435482 0.07571913 0.083322 0.080988824 0.06923382 0.07561001 -0.025135571
00000000: 0eb0 29bd 770f 853d 352a dfbc b03a 3cbd
00000010: 023d 6bbb 9bb5 3e3d 1355 a03d c3d5 9cbd
00000020: d449 f93c 5110 633d a212 9b3d baa4 aa3d
00000030: 78dd a53d 76ca 8d3d 6cd9 9a3d 1de9 cdbc

fc1.weight f4 [120, 400]
0.041487563 0.01837685 -0.012045069 0.04539223 -0.008589085 -0.02764798 -0.042344414 0.045222532
-0.039442204 -0.033703476 -0.025689567 -0.043272752 0.03975022 -0.03995714 -0.03546766 0.009564388
0.011246026 0.036849305 0.026655685 0.026640207 -0.04596081 -0.031914532 0.0142284045 -0.024568431
0.027728518 0.0218605 0.024180455 -0.017415987 -0.035687346 -0.019977234 0.034658413 0.004708999
0.010876085 0.02570754 0.020814547 0.0049709636 0.02813786 0.024476133 0.01590853 -0.011195931
-0.017177677 -0.031274535 -0.0089723915 -0.0494354 -0.024616303 0.03352555 -0.019547775 0.006268125
-0.020235693 0.042977016 -0.01348453 -0.0027764952 -0.0106170485 -0.04607659 0.04736733 -0.024052536
0.027564546 0.04158154 -0.032254644 -0.036935132 -0.0043265317 0.045224804 0.040932026 -0.009610785
0.02251854 -0.04122162 -0.006349779 0.0015664017 -0.04887192 0.039047033 -0.0029220274 -0.018139163
0.014379451 -0.018960528 0.034044124 0.031945717 -0.007470486 0.0024552462 0.0032993862 -0.033128865
-0.006833369 0.038164932 -0.0369496 0.022117924 0.03837573 0.0042449287 0.036358982 -0.048720293
0.040375415 -0.045951143 0.034914125 -0.019235948 0.020221561 0.044321258 -0.003706565 0.031085776
-0.027902534 0.04873966 0.038283844 0.0012675684 -0.042379424 0.018116973 -0.03014459 0.048937045
-0.026360437 0.02047246 0.023673506 -0.041941978 0.048784904 -0.030806655 0.016575467 0.040035296
0.022573829 0.016699877 -0.01487351 -0.02753433 -0.018926134 -0.040026095 0.024124384 0.010100274
-0.04106435 0.026653688 -0.022066863 -0.008563041 -0.04033768 -0.0030193143 -0.040214818 -0.015449883
-0.041346796 -0.02993847 0.00033929915 -0.01893523 -0.048173666 -0.033636592 0.04540844 -0.04290821
-0.031790517 0.015660213 -0.02204896 0.012599397 0.02648414 0.02267734 -0.023592312 -0.039872795
0.014596121 0.006923877 0.043402296 -0.000374335 0.0064063533 0.019370051 0.041161817 0.04692417
0.028184367 -0.006996265 -0.00905234 -0.0021990659 0.032225534 0.0012919336 0.0051611844 -0.013940946
-0.021565013 -0.04629292 -0.024735378 0.03163162 0.0017742695 -0.011162707 -0.033003066 0.02086882
0.006474159 0.047835827 0.02516484 -0.024383523 -0.0061916616 -0.022585934 -0.049118306 0.016270408
0.03446815 -0.0055548563 0.01101082 0.04509067 0.007688274 -0.047432356 0.040753353 0.042719185
-0.021488786 0.0091096675 0.038637023 0.018666327 -0.020403957 0.03468777 -0.01923843 0.013945888
-0.037427463 -0.00013389588 0.008333749 -0.037172522 -0.0031774202 -0.023446513 -0.032602556 -0.048585422
0.03638921 -0.047793098 -0.027209483 -0.019081306 0.0055351397 -0.0149723785 0.032062475 -0.034047563
-0.04033134 0.01975101 0.03537845 -0.02933516 -0.0016674309 0.016250346 -0.049757503 -0.048467983
0.048086856 0.04351055 -0.012055364 -0.0015202935 -0.018481687 -0.03959682 0.041335665 0.0077679725
-0.041802257 -0.015580815 -0.011891238 0.036686767 -0.021428596 -0.0050164885 0.032670073 -0.0018635759
-0.034265865 -0.033481736 0.0013074186 -0.025226964 -0.0009076321 -0.032639433 0.008107323 -0.010888371
-0.0397789 -0.0027327053 0.033563152 0.037244566 -0.045986228 0.03256499 -0.03504299 -0.021837791
-0.020696193 -0.039754625 0.022307016 0.0340831 0.0265717 -0.041352715 0.0024301007 0.018980607
00000000: ddee 293d 0c8b 963c ae58 45bc 34ed 393d
00000010: 3cb9 0cbc 047e e2bc 5671 2dbd 433b 393d
00000020: 268e 21bd a80c 0abd ed72 d2bc c53e 31bd
00000030: 20d1 223d 19aa 23bd 8946 11bd f3b3 1c3c
00000040: 4041 383c 4cef 163d 065d da3c 903c da3c
00000050: 6741 3cbd d0b8 02bd 411e 693c bc43 c9bc
00000060: eb26 e33c cb14 b33c 1716 c63c f9ab 8ebc
00000070: e52c 12bd 4ca7 a3bc fbf5 0d3d f24d 9a3b
00000080: 9b31 323c 9e98 d23c 4583 aa3c 77e3 a23b
00000090: 5f81 e63c 2c82 c83c 9b52 823c 236f 37bc
000000a0: 33b8 8cbc ba19 00bd f000 13bc c67c 4abd
000000b0: 21a8 c9bc 1652 093d a822 a0bc d864 cd3b
000000c0: 53c5 a5bc ab08 303d 38ee 5cbc dcf5 35bb
000000d0: 21f3 2dbc ceba 3cbd 3f04 423d d309 c5bc
000000e0: 0bcf e13c 6851 2a3d 721d 04bd 4b49 17bd
000000f0: 94c5 8dbb a53d 393d 57a8 273d 8e76 1dbc
00000100: cd78 b83c 00d8 28bd cf11 d0bb b84f cd3a
00000110: ec2d 48bd c8ef 1f3d 7c7f 3fbb 9598 94bc
00000120: ca97 6b3c 1c53 9bbc da71 0b3d 83d9 023d
00000130: fbca f4bb 32e8 203b 843a 583b 22b2 07bd
00000140: 74ea dfbb d552 1c3d 7758 17bd a630 b53c
00000150: df2f 1d3d 0b19 8b3b 28ed 143d ee8e 47bd
00000160: b160 253d 4437 3cbd 1d02 0f3d b594 9dbc
00000170: b0a7 a53c 358a 353d d7e9 72bb 99a7 fe3c
00000180: db93 e4bc 3da3 473d 85cf 1c3d 8a24 a63a
00000190: 0c96 2dbd 0c6a 943c caf1 f6bc 3672 483d
000001a0: d8f1 d7bc dcb5 a73c f1ee c13c 5acb 2bbd
000001b0: aed2 473d 3d5e fcbc 46c9 873c 0dfc 233d
000001c0: c0ec b83c 2ece 883c 06b0 73bc ad8f e1bc
000001d0: fb0a 9bbc 67f2 23bd 80a0 c53c 9f7b 253c
000001e0: 1833 28bd d658 da3c 91c5 b4bc ff4b 0cbc
000001f0: 2039 25bd b0df 45bb 4bb8 24bd 8221 7dbc
00000200: 425b 29bd 8641 f5bc f6e3 b139 0e1e 9bbc
00000210: c051 45bd 86c6 09bd 33fe 393d 85c0 2fbd
00000220: c636 02bd d949 803c 05a0 b4bc b46d 4e3c
00000230: 44f5 d83c d4c5 b93c aa44 c1bc a851 23bd
00000240: 9224 6f3c b1e1 e23b 9bc6 313d 6542 c4b9
00000250: 63ec d13b f1ad 9e3c 4b99 283d 8f33 403d
00000260: e7e2 e63c ed40 e5bb 4450 14bc 341e 10bb
00000270: ecfe 033d 1956 a93a 271f a93b 9168 64bc
00000280: 1ca9 b0bc a59d 3dbd d9a1 cabc 2890 013d
00000290: 9b8e e83a c9e3 36bc 392e 07bd 16f5 aa3c
000002a0: 2f25 d43b 80ef 433d 7f26 ce3c f4bf c7bc
000002b0: 6ce3 cabb 2306 b9bc 4730 49bd 8549 853c
000002c0: 7a2e 0d3d 8305 b6bb ba66 343c ffb0 383d
000002d0: ebed fb3b 6e48 42bd fdec 263d 50fa 2e3d
000002e0: 4009 b0bc b740 153c db41 1e3d 20ea 983c
000002f0: 3326 a7bc c314 0e3d e999 9dbc 4b7d 643c
00000300: 8a4d 19bd 6766 0cb9 478a 083c 3742 18bd
00000310: 443c 50bb e712 c0bc 428a 05bd 8201 47bd
00000320: da0c 153d b2c2 43bd 6ce6 debc 6650 9cbc
00000330: 1e60 b53b b54e 75bc f153 033d 7575 0bbd
00000340: 7a32 25bd dfcc a13c fee8 103d 4a50 f0bc
00000350: b28d daba 721f 853c 86ce 4bbd 5d86 46bd
00000360: b9f6 443d 1e38 323d dd83 45bc 9644 c7ba
00000370: e866 97bc 4630 22bd 964f 293d 7a8a fe3b
00000380: d838 2bbd ad46 7fbc 78d3 42bc dd44 163d
00000390: 068b afbc 5b61 a4bb 0ed1 053d 3b43 f4ba
000003a0: 5d5a 0cbd 2524 09bd b05d ab3a c7a8 cebc
000003b0: 29ee 6dba edb0 05bd 94d4 043c 2365 32bc
000003c0: 33ef 22bd 3017 33bb 8479 093d c28d 183d
000003d0: 0e5c 3cbd de62 053d 3d89 0fbd 2be5 b2bc
000003e0: 108b a9bc bfd5 22bd 34bd b63c b89a 0b3d
000003f0: e5ac d93c 7761 29bd 5342 1f3b 387d 9b3c

fc1.bias f4 [120]
0.013635182 0.038877793 0.04886118 -0.0358367 -0.043106407 -0.04850427 -0.046032153 0.012484542
-0.040608887 -0.037630025 0.042728506 -0.016834093 -0.014813982 -0.037858956 -0.034499004 0.04149132
0.0063246572 -0.037933987 0.020149129 -0.014108075 0.04254597 0.046669412 -0.03358028 -0.009865186
0.04904927 0.029908733 -0.010427284 -0.008535412 0.022560338 -0.024735615 0.034227528 0.0032226637
0.041657876 0.052541547 0.0122421095 0.041710988 0.021585535 -0.009328945 -0.007385299 -0.014196503
-0.040187705 0.012712181 -0.016853264 -0.038591553 -0.03997265 0.038456496 0.04303116 0.017102428
0.009648496 0.04775564 0.007325161 0.036101524 0.041147005 0.018867409 -0.01422696 -0.03441722
0.0039547104 -0.011619948 -0.008185153 0.017604418 -0.03703005 0.007288216 -0.012729624 0.013419848
-0.0011760225 -0.044305794 0.0067321025 0.03194012 -0.028569384 -0.016001454 -0.044104934 -0.039715964
-0.0189578 -0.0082391435 0.013055603 -0.013150713 0.0351455 -0.028319754 -0.00015191057 -0.031488612
0.0062101046 -0.024931986 -0.011602918 0.019719172 0.013955299 -0.0051506003 0.04490248 0.046195988
0.03761239 -0.027817857 -0.037925083 -0.030981457 -0.048415992 -0.030440288 0.049276493 0.045633838
0.008923359 0.0073847184 -0.041798215 0.023485195 0.03628443 -0.047610793 -0.0066807913 -0.033142995
0.038484346 -0.00904409 -0.021757878 0.018314287 -0.023128273 0.005545385 0.019759923 0.0002757311
0.04886805 -0.023977075 0.038650196 0.038202673 -0.0042790473 0.03922178 -0.021783812 0.024900436
00000000: 1966 5f3c 523e 1f3d a922 483d 81c9 12bd
00000010: 5890 30bd 6aac 46bd 368c 3cbd f78b 4c3c
00000020: 8155 26bd f121 1abd 1604 2f3d a7e7 89bc
00000030: 58b6 72bc fe11 1bbd d44e 0dbd cdf2 293d
00000040: 123f cf3b ab60 1bbd c90f a53c 8e25 67bc
00000050: af44 2e3d 6d28 3f3d 7a8b 09bd 97a1 21bc
00000060: e3e7 483d 2903 f53c 33d7 2abc 1dd8 0bbc
00000070: 75d0 b83c 58a2 cabc 2a32 0c3d 5333 533b
00000080: 73a1 2a3d ce35 573d 2193 483c 24d9 2a3d
00000090: 26d4 b03c 6ed8 18bc 6100 f2bb 7398 68bc
000000a0: dd9b 24bd c046 503c db0f 8abc 2d12 1ebd
000000b0: 5dba 23bd 8f84 1d3d 7141 303d 641a 8c3c
000000c0: ba14 1e3c 6b9b 433d e707 f03b 31df 133d
000000d0: c389 283d d38f 9a3c 3218 69bc 12f9 0cbd
000000e0: 8496 813b 9861 3ebc 051b 06bc 2437 903c
000000f0: d2ac 17bd fdd1 ee3b ea8f 50bc ecde 5b3c
00000100: c424 9aba fe79 35bd f898 dc3b a5d3 023d
00000110: 570a eabc 7b15 83bc 60a7 34bd 35ad 22bd
00000120: 634d 9bbc 79fd 06bc 2be7 553c 1776 57bc
00000130: baf4 0f3d d4fe e7bc 2f4a 1fb9 34fa 00bd
00000140: 227e cb3b 2a3e ccbc 2a1a 3ebc 1a8a a13c
00000150: c4a4 643c 5ec6 a8bb aaeb 373d 0138 3d3d
00000160: 730f 1a3d 46e2 e3bc 5557 1bbd d3cc fdbc
00000170: d94f 46bd e95d f9bc 26d6 493d 8cea 3a3d
00000180: 4833 123c 82fb f13b 9b34 2bbd 0664 c03c
00000190: fc9e 143d 8903 43bd 8aea dabb f3c0 07bd
000001a0: c3a1 1d3d aa2d 14bc 943d b2bc d807 963c
000001b0: 8177 bdbc 10b6 b53b 90df a13c 0090 9039
000001c0: dd29 483d 926b c4bc ab4f 1e3d 687a 1c3d
000001d0: 4037 8cbb 04a7 203d f773 b2bc 00fc cb3c

fc2.weight f4 [84, 120]
0.0125225205 0.03202996 0.04276339 -0.012081595 0.07501086 0.042122696 0.0692268 0.018052068
0.0862417 0.12524807 0.05682794 0.08193028 -0.020287361 0.034403864 0.03037416 0.10711196
0.030570652 -0.02940693 -0.10567823 -0.030697703 -0.053982463 -0.078796566 -0.046534438 -0.069036484
-0.020199418 -0.03198905 0.079850025 0.07221995 -0.11999301 0.058055338 -0.03159706 0.011606665
0.072115 -0.018415904 -0.04040161 0.014862403 0.06488351 -0.06251664 0.045974426 0.018950678
0.0873753 0.067520246 0.034264173 -0.062968604 -0.066685826 -0.1064841 0.018694844 0.08421134
-0.06232067 0.045421656 -0.06890765 0.020681968 -0.045898955 0.03158157 0.06008763 -0.016182138
0.13771261 0.032446526 -0.04596899 -0.046133712 -0.059864018 0.100902796 0.019182367 0.061853845
0.009148348 0.09032942 -0.015884798 0.05190035 -0.04712743 -0.1344538 -0.07973999 0.0401835
0.02820866 0.051286228 0.08765091 -0.05635531 0.03030511 -0.019955132 -0.0052386886 0.06865888
0.018495623 0.016250469 -0.10624696 -0.021790907 0.1049291 0.021711983 0.014077578 -0.066940814
-0.00928457 -0.0074136974 0.08290002 0.056663305 0.07730142 -0.008067282 -0.02573385 0.012456745
-0.06925679 0.10079411 -0.0897686 0.07100493 -0.03203837 0.030829508 0.07373005 0.07134274
0.012288988 0.022214271 0.05889188 -0.018451389 -0.0066732597 -0.0130483145 -0.1190209 -0.002808235
0.0818309 -0.0017867921 0.06760697 0.090189464 -0.07542454 0.060233284 0.11102947 -0.04383894
0.08663577 -0.046414476 -0.037446935 0.049480166 0.07225358 -0.07627253 0.003971293 0.056077216
-0.008134437 -0.06885197 -0.081747584 0.049824297 -0.037301596 0.04602592 0.06301078 -0.06922748
-0.07028331 -0.08340497 0.07137047 0.08442286 -0.047027897 0.050895806 -0.08380003 0.028464124
-0.07687039 0.020909421 -0.06829784 -0.07760853 0.04687666 -0.012026652 -0.04019473 -0.01924233
-0.043991353 0.06047211 0.05109298 0.017618371 0.084028415 0.002135295 0.036958124 -0.040209856
-0.038194153 0.085329205 -0.019453006 0.039394587 0.053160664 -0.028344223 0.08340837 0.013947127
-0.08354219 -0.039050523 -0.043221194 -0.094769254 -0.01024279 -0.0050156335 -0.09817868 0.06164412
-0.03677762 -0.03846029 -0.05167421 0.083732575 0.05834607 0.09212293 -0.005183669 0.026471848
-0.030098028 -0.0015182535 -0.030180376 0.0861615 -0.0031952085 -0.09459811 0.049442362 0.08740336
-0.015987253 0.040881757 0.00081936514 -0.026666747 0.03162603 -0.0059615755 -0.04095598 -0.026678307
0.0057602325 -0.05693852 -0.05477596 -0.052685674 -0.085176304 0.03904051 -0.07394999 -0.011427116
0.08688248 0.019814339 0.04367335 -0.062249694 -0.0897102 0.075812146 0.03811128 0.08025377
-0.043610834 0.025606286 0.04394108 -0.02285593 0.0701573 -0.0216746 -0.089010835 0.06409481
-0.06801065 -0.023444962 -0.027227186 -0.093958035 -0.059211254 -0.077789396 -0.037215862 -0.0033018328
-0.06809615 0.08202437 0.07648041 0.007911308 0.060235895 -0.019188352 0.080644034 -0.074057944
-0.07390934 0.00334231 -0.03739607 0.106402285 -0.032647025 0.027143372 -0.06630988 -0.01884828
0.026731791 -0.09197486 -0.025653325 -0.0356447 -0.017578589 0.017063893 0.036079437 -0.036815695
00000000: 422b 4d3c d931 033d aa28 2f3d e2f1 45bc
00000010: 4b9f 993d d988 2c3d c8c6 8d3d eee1 933c
00000020: 7d9f b03d 0841 003e 6ac4 683d 10cb a73d
00000030: ae31 a6bc 11eb 0c3d 3bd3 f83c 845d db3d
00000040: 4e6f fa3c cde6 f0bc d46d d8bd c079 fbbc
00000050: b71c 5dbd 1860 a1bd e59a 3ebd 0063 8dbd
00000060: 4079 a5bc f306 03bd 6988 a33d 0ee8 933d
00000070: e5be f5bd 6fcb 6d3d eb6b 01bd e229 3e3c
00000080: 07b1 933d f3dc 96bc 297c 25bd 7081 733c
00000090: a5e1 843d b908 80bd ae4f 3c3d 743e 9b3c
000000a0: d2f1 b23d 0e48 8a3d 9758 0c3d aff5 80bd
000000b0: 9492 88bd 5614 dabd ee25 993c ff76 ac3d
000000c0: f543 7fbd 0f0c 3a3d 741f 8dbd 3b6d a93c
000000d0: 8b00 3cbd ad5b 013d 721e 763d 6790 84bc
000000e0: 8904 0d3e a6e6 043d fb49 3cbd b4f6 3cbd
000000f0: f933 75bd 20a6 ce3d 5724 9d3c 755a 7d3d
00000100: f4e2 153c a2fe b83d d620 82bc 7695 543d
00000110: b108 41bd 42ae 09be b84e a3bd 7497 243d
00000120: d915 e73c 8211 523d 5282 b33d d3d4 66bd
00000130: 6c42 f83c f278 a3bc 4ea9 abbb 079d 8c3d
00000140: 2284 973c b41f 853c 0298 d9bd d882 b2bc
00000150: 11e5 d63d 54dd b13c a4a5 663c 4418 89bd
00000160: 4f1e 18bc 9aee f2bb 7cc7 a93d c817 683d
00000170: 3550 9e3d a22c 04bc cccf d2bc 6017 4c3c
00000180: 81d6 8dbd 246d ce3d 9ad8 b7bd 086b 913d
00000190: aa3a 03bd 2a8e fc3c c8ff 963d 241c 923d
000001a0: c057 493c b4fa b53c 9d38 713d 5e27 97bc
000001b0: 5cab dabb 99c8 55bc 3bc1 f3bd 5d0a 38bb
000001c0: f596 a73d cb32 eaba 8675 8a3d 41b5 b83d
000001d0: 2e78 9abd 2db7 763d 6b63 e33d 7690 33bd
000001e0: 186e b13d 1b1d 3ebd f561 19bd b7ab 4a3d
000001f0: aff9 933d c634 9cbd 9f21 823b 39b1 653d
00000200: 4d46 05bc 4302 8dbd 476b a7bd 9014 4c3d
00000210: 8fc9 18bd ad85 3c3d cc0b 813d 23c7 8dbd
00000220: b2f0 8fbd 3ad0 aabd ae2a 923d e4e5 ac3d
00000230: 53a0 40bd 1f78 503d 5a9f abbd 982d e93c
00000240: 396e 9dbd 3c4a ab3c bddf 8bbd 39f1 9ebd
00000250: be01 403d 6f0b 45bc 3ba3 24bd 17a2 9dbc
00000260: 4730 34bd 9ab1 773d df46 513d 6754 903c
00000270: 1717 ac3d 4ef0 0b3b 6761 173d 17b3 24bd
00000280: 7971 1cbd 14c1 ae3d e95b 9fbc 385c 213d
00000290: ffbe 593d 2532 e8bc 02d2 aa3d 7e82 643c
000002a0: 2b18 abbd 71f3 1fbd b508 31bd 6216 c2bd
000002b0: 60d1 27bc 2f5a a4bb e711 c9bd 8b7e 7c3d
000002c0: 21a4 16bd 8988 1dbd 56a8 53bd fc7b ab3d
000002d0: 4afc 6e3d f2aa bc3d c4db a9bb 7ddb d83c
000002e0: 2490 f6bc 2200 c7ba d63c f7bc 7175 b03d
000002f0: b466 51bb a7bc c1bd 1384 4a3d 8800 b33d
00000300: b3f7 82bc a173 273d aaca 563a 3974 dabc
00000310: 4c8a 013d 5259 c3bb 75c1 27bd 778c dabc
00000320: 55c0 bc3b 5e38 69bd c25c 60bd efcc 57bd
00000330: ea70 aebd f1e8 1f3d 1873 97bd cc38 3bbc
00000340: 71ef b13d ae51 a23c d4e2 323d 89f9 7ebd
00000350: fbb9 b7bd 6643 9b3d 931a 1c3d 175c a43d
00000360: 46a1 32bd 46c4 d13c 90fb 333d 5c3c bbbc
00000370: a1ae 8f3d ee8e b1bc 504b b6bd 2444 833d
00000380: 2b49 8bbd a60f c0bc 8c0b dfbc 126d c0bd
00000390: 8087 72bd 0c50 9fbd a96f 18bd 9063 58bb
000003a0: ff75 8bbd 65fc a73d c3a1 9c3d 6e9e 013c
000003b0: eab9 763d e430 9dbc b328 a53d b1ab 97bd
000003c0: c85d 97bd a80a 5b3b 9f2c 19bd 71e9 d93d
000003d0: e3b8 05bd c75b de3c 79cd 87bd b567 9abc
000003e0: a1fc da3c 515d bcbd ec26 d2bc 2d00 12bd
000003f0: f900 90bc 94c9 8b3c 08c8 133d 0ecc 16bd

fc2.bias f4 [84]
0.032223567 -0.07263068 0.07856088 -0.07685762 -0.0084124 0.06962722 0.009903054 0.0057477513
0.061438724 -0.08339291 0.013582043 -0.076882936 -0.08344705 -0.08423535 0.08529818 -0.0032843244
-0.06960539 -0.064127825 0.008854234 0.05753688 -0.027723191 -0.057512533 -0.046836328 0.059743203
-0.04665509 0.04419577 -0.026514871 0.012852389 0.008685403 -0.014962922 -0.06292456 0.06495572
-0.0514422 -0.037504084 -0.039031547 0.07135928 -0.048549194 -0.031051805 0.040342182 -0.0006319825
-0.0036812096 -0.075541824 0.07098927 0.0035845637 -0.09779796 -0.01327586 0.036577217 -0.06274622
-0.08207219 -0.001960945 0.048401207 0.021487089 -0.071600355 0.07297348 -0.046432942 0.018121092
-0.084975734 0.083342455 -0.07992925 0.03079477 0.03271372 0.014968773 -0.0075304657 0.067412436
-0.0789218 -0.08274895 -0.0019802372 -0.06758871 -0.006164577 -0.07600566 -0.06516169 -0.0138944145
-0.061925482 -0.049369156 0.044921752 -0.08736372 -0.057168994 -0.012992426 0.05919388 0.008540169
0.025858287 0.055913903 0.114154406 -0.07778164
00000000: dcfc 033d 65bf 94bd 87e4 a03d 8767 9dbd
00000010: 2ad4 09bc b798 8e3d 6b40 223c a257 bc3b
00000020: 2ca7 7b3d e7c9 aabd 3887 5e3c cd74 9dbd
00000030: 49e6 aabd 9583 acbd d0b0 ae3d d23d 57bb
00000040: 458d 8ebd 7355 83bd 5911 113c cbab 6b3d
00000050: bf1b e3bc 4392 6bbd 73d7 3fbd 4ab5 743d
00000060: 6819 3fbd a006 353d b735 d9bc d492 523c
00000070: 384d 0e3c 0b27 75bc 97de 80bd 8107 853d
00000080: 0eb5 52bd e29d 19bd 8bdf 1fbd d024 923d
00000090: 85db 46bd 5b60 febc d83d 253d a1ab 25ba
000000a0: 7340 71bb acb5 9abd d362 913d 00eb 6a3b
000000b0: 4c4a c8bd fe82 59bc fed1 153d 1781 80bd
000000c0: 7715 a8bd 3383 00bb 5840 463d b105 b03c
000000d0: 35a3 92bd 1f73 953d 7830 3ebd af72 943c
000000e0: c207 aebd 73af aa3d f2b1 a3bd 5045 fc3c
000000f0: d2fe 053d 963f 753c 20c2 f6bb 880f 8a3d
00000100: c1a1 a1bd 4878 a9bd dec6 01bb f36b 8abd
00000110: 3800 cabb dba8 9bbd 7e73 85bd 66a5 63bc
00000120: 93a5 7dbd 5037 4abd dfff 373d c0eb b2bd
00000130: 092a 6abd 2fde 54bc 4875 723d 11ec 0b3c
00000140: c2d4 d33c fa05 653d c9c9 e93d fb4b 9fbd

fc3.weight f4 [33, 84]
-0.007354989 -0.05046522 0.11914246 -0.006489877 0.11818847 -0.10514891 -0.094317295 0.032822102
-0.014352944 -0.028376548 0.0149624 0.029345332 0.024478376 0.14400744 -0.14386526 0.01839494
0.094184384 -0.09436033 0.052663557 0.09133792 0.013406509 -0.006162359 -0.10797205 0.05032257
0.025493082 0.020809269 0.10303242 -0.06370143 -0.03475453 -0.09371734 0.035599902 0.11721707
0.065763585 0.06287942 0.09039374 0.005437726 0.053440288 -0.06356603 -0.008638318 0.031095315
-0.12208117 0.11193171 -0.0843937 0.10162146 0.08598465 -0.05220348 0.13639998 -0.0024368535
-0.081154875 -0.02006749 -0.0825512 -0.033099078 0.102979064 -0.04035227 0.010244225 0.056686666
0.11453219 0.10797316 0.03305701 -0.082087636 -0.0130182095 0.041376702 0.051892072 -0.065650195
-0.019229384 0.023390282 0.077520534 0.090410754 -0.08271778 -0.0065059382 0.10539506 0.056851007
-0.08321902 -0.08247909 -0.0016987172 -0.075168125 -0.10148377 -0.16817349 0.112169586 -0.1509376
-0.0039410363 0.048885223 0.16314602 -0.12863368 -0.20883167 -0.03665499 0.01146859 0.14424871
0.16426833 -0.00934766 -0.081658624 -0.13132863 0.08951383 -0.01282944 -0.009292748 -0.095941335
0.014490926 -0.050988067 -0.0642464 0.05213606 0.11111145 -0.087186925 0.09948641 -0.041184474
-0.107300244 -0.050558362 0.034974005 0.027393024 0.037495606 -0.013230693 -0.0013700697 0.12538676
-0.040510595 -0.082739264 -0.069319025 -0.124224775 -0.14328113 0.03387703 -0.032142274 -0.016512087
-0.02102546 0.07787606 0.038179062 0.0827547 -0.0007581132 0.11088034 0.049155 0.06425635
-0.084231794 0.12443719 0.08576844 -0.060365673 -0.085674085 0.08380691 -0.018886602 -0.038387943
-0.05823909 0.0953417 0.04822444 0.047702152 0.03752483 0.05313382 -0.067926876 -0.04309111
-0.13019529 0.19533193 0.068862244 -0.070224434 -0.08694422 0.028309928 0.10316689 -0.06065496
0.050891537 -0.063989274 -0.00022603078 0.005773677 -0.034785394 0.062617 0.08336001 -0.125304
0.0875167 -0.15449555 0.023157578 -0.01402132 0.16092274 0.043458845 -0.008425157 -0.051038712
-0.07437019 0.09566609 0.07209591 -0.09993391 0.034930196 0.12760574 -0.062229905 -0.017645482
-0.09157475 -0.18834667 0.07864561 -0.17957233 0.028481685 0.05860543 -0.10927173 -0.085440315
0.089221865 -0.011210034 0.091914676 -0.041310947 -0.011734525 -0.046391092 -0.094538376 0.08271833
-0.13824931 -0.084231526 0.03823297 0.016074866 0.009450492 0.07268419 0.05458039 -0.09047331
-0.10245624 -0.10509233 -0.028214518 0.06488127 -0.066161804 0.0842282 -0.090811834 0.10548799
-0.05148367 0.030411055 0.07795365 0.048172947 -0.044448253 0.053818263 0.12261743 0.0018899816
-0.022522748 -0.09546728 -0.020230638 0.05086421 -0.069008596 0.10630275 -0.059684154 0.06782508
-0.09947001 0.11972897 -0.077663705 0.09175357 -0.10242988 0.059043862 0.024444787 0.09094669
0.076510146 0.04438457 -6.519656e-05 -0.009325867 -0.017967645 0.013991935 0.027252376 0.09388476
0.111210525 0.034089122 0.049764033 -0.060734306 0.0035244592 0.07777121 0.068638064 0.07144426
-0.1528479 -0.05376318 -0.026800482 0.11600604 -0.06139598 0.040355954 -0.081076264 0.06135806
00000000: 1f02 f1bb 9eb4 4ebd f600 f43d 09a9 d4bb
00000010: cc0c f23d 5058 d7bd 6d29 c1bd 7870 063d
00000020: 9c28 6bbc ef75 e8bc db24 753c 9f65 f03c
00000030: e086 c83c b076 133e 6a51 13be fcb0 963c
00000040: bee3 c03d fd3f c1bd beb5 573d 600f bb3d
00000050: f9a6 5b3c 9ded c9bb 7320 ddbd 0a1f 4e3d
00000060: ded6 d03c 3378 aa3c a902 d33d e575 82bd
00000070: c45a 0ebd e0ee bfbd 34d1 113d 810f f03d
00000080: 0faf 863d edc6 803d 5a20 b93d f42e b23b
00000090: 34e4 5a3d e82e 82bd bb87 0dbc 9abb fe3c
000000a0: b105 fabd 743c e53d 9bd6 acbd e91e d03d
000000b0: b818 b03d 51d3 55bd 70ac 0b3e 9eb3 1fbb
000000c0: 8734 a6bd 9464 a4bc 9b10 a9bd e692 07bd
000000d0: b0e6 d23d 6c48 25bd 65d7 273c 4730 683d
000000e0: da8f ea3d 0821 dd3d ca66 073d 901d a8bd
000000f0: 544a 55bc 9e7a 293d c88c 543d 9c73 86bd
00000100: f186 9dbc fa9c bf3c 16c3 9e3d 4629 b93d
00000110: f067 a9bd c42f d5bb 5dd9 d73d 9adc 683d
00000120: bc6e aabd ccea a8bd 7ea7 deba bff1 99bd
00000130: b9d6 cfbd ac35 2cbe 2bb9 e53d 638f 1abe
00000140: cf23 81bb df3b 483d c00f 273e 8cb8 03be
00000150: f8d7 55be 8b23 16bd c1e6 3b3c efb5 133e
00000160: f535 283e ed26 19bc a33c a7bd 037b 06be
00000170: 0753 b73d 9232 52bc 9c40 18bc e47c c4bd
00000180: 596b 6d3c ddd8 50bd 9e93 83bd 9f8c 553d
00000190: 668e e33d 0f8f b2bd 88bf cb3d 0db1 28bd
000001a0: 3bc0 dbbd 4916 4fbd e740 0f3d 5667 e03c
000001b0: fe94 193d 8cc5 58bc e993 b3ba 6365 003e
000001c0: 70ee 25bd 3473 a9bd 22f7 8dbd 8f69 febd
000001d0: 4ab8 12be a4c2 0a3d 9ea7 03bd 5b44 87bc
000001e0: 963d acbc 7c7d 9f3d a661 1c3d 4c7b a93d
000001f0: 1ebc 46ba 3b15 e33d c156 493d d598 833d
00000200: b881 acbd edd8 fe3d 5da7 af3d ff41 77bd
00000210: e575 afbd f5a2 ab3d 13b8 9abc ad3c 1dbd
00000220: 1d8c 6ebd 8242 c33d fe86 453d 5563 433d
00000230: a3b3 193d d9a2 593d 3f1d 8bbd 4e80 30bd
00000240: ea51 05be 1805 483e a607 8d3d d4d1 8fbd
00000250: d00f b2bd 39ea e73c 2a49 d33d 5671 78bd
00000260: a573 503d cf0c 83bd ad02 6db9 1d31 bd3b
00000270: 217b 0ebd 573d 803d a7b8 aa3d b14f 00be
00000280: f53b b33d 1534 1ebe f6b4 bd3c aeb9 65bc
00000290: eec8 243e e701 323d ab09 0abc f80d 51bd
000002a0: 664f 98bd 95ec c33d 05a7 933d 26aa ccbd
000002b0: f712 0f3d 14ab 023e c9e4 7ebd 428d 90bc
000002c0: 8b8b bbbd f3dd 40be f310 a13d cfe1 37be
000002d0: 6c52 e93c 3f0c 703d dbc9 dfbd 55fb aebd
000002e0: f4b9 b63d 4aaa 37bc c33d bc3d ab35 29bd
000002f0: 2a42 40bc 9604 3ebd 569d c1bd 3a68 a93d
00000300: 3a91 0dbe 9481 acbd 2d9a 1c3d 70af 833c
00000310: 3dd6 1a3c 73db 943d b08f 5f3d 124a b9bd
00000320: 94d4 d1bd a63a d7bd 2222 e7bc 79e0 843d
00000330: d77f 87bd d67f ac3d 8efb b9bd 160a d83d
00000340: 8ae0 52bd 9b20 f93c 2aa6 9f3d ff50 453d
00000350: 5f0f 36bd 8a70 5c3d d91e fb3d 42b9 f73a
00000360: a081 b8bc 5984 c3bd b9ba a5bc fd56 503d
00000370: 6154 8dbd 42b5 d93d 5f77 74bd e0e7 8a3d
00000380: efb6 cbbd 7634 f53d 260e 9fbd 4ce9 bb3d
00000390: c2c6 d1bd fad7 713d 6f40 c83c 4242 ba3d
000003a0: 5ab1 9c3d 98cc 353d 23ba 88b8 85cb 18bc
000003b0: e230 93bc 6e3e 653c 6040 df3c a746 c03d
000003c0: 58c2 e33d 09a1 0b3d 5fd5 4b3d 89c4 78bd
000003d0: 9dfa 663b 8346 9f3d 1d92 8c3d 5e51 923d
000003e0: 2984 1cbe c836 5cbd af8c dbbc 9394 ed3d
000003f0: 5a7a 7bbd 494c 253d 500b a6bd 9752 7b3d

fc3.bias f4 [33]
0.01900325 -0.11645963 0.184256 -0.118884325 -0.0818806 0.07118137 -0.10619201 0.19395997
-0.010774932 -0.14964214 0.01211589 0.047611192 -0.09879685 0.0634293 -0.017348936 -0.08234819
-0.034082565 0.07630612 -0.011471529 0.019078175 -0.0010716324 -0.0061785746 -0.110277064 -0.1213134
0.03790569 0.017796004 -0.06491914 -0.10515713 -0.10478953 -0.03794183 0.13212103 -0.09327572
-0.060262926
00000000: b4ac 9b3c 6382 eebd 9bad 3c3e a079 f3bd
00000010: 04b1 a7bd 8ac7 913d 327b d9bd 719d 463e
00000020: 5789 30bc ca3b 19be ba81 463c f403 433d
00000030: 0156 cabd 39e7 813d 5b1f 8ebc 2ba6 a8bd
00000040: 299a 0bbd 6246 9c3d 14f3 3bbc d549 9c3c
00000050: 0476 8cba a475 cabb f1d8 e1bd 2973 f8bd
00000060: ff42 1b3d edc8 913c 53f4 84bd 9f5c d7bd
00000070: e59b d6bd e468 1bbd bc4a 073e 5707 bfbd
00000080: 42d6 76bd
